best_gcn_model.pth (torch, 304170 bytes, 13 tensors)

node_embedding.weight f4 [64, 770]
00000000: bb17 c5bd 369c 563c fca4 37be d01a 9fbd
00000010: b15c 553e b834 11bd 6ac7 653d f0fe 0bbc
00000020: 6f5a 79bd e825 2cbe 6222 1dbe b02c feba
00000030: dfec 003d e41a 84bd c803 8f3d 7fa3 593d
00000040: d8ce 7cbd d060 22bc 9708 b53d c340 14be
00000050: 700e 2abd d8ad eb3d 1d0b 9fbc 1dd9 003e
00000060: af19 a9bd c177 083d 2ecb 10be ba90 33bd
00000070: 1325 a1bc 74f9 c2bd 44f2 253e 989f 2ebe
00000080: ac74 8e3b 828f 31be f676 80be ef19 353c
00000090: 9d4c 3ebc 7f25 123e e4ec f33d 154f e7bd
000000a0: f011 0e3c 4a35 0db9 9bc9 f6bd 7769 e23b
000000b0: 7154 aa3d 7794 1f3d 6b97 db3c 9bdc 8fbd
000000c0: e2af 373e 2e70 213d 77fc bdbc b229 d43c
000000d0: 6289 cabd 1548 413e 2ff0 1a3d 82a8 86bc
000000e0: bc43 d8bd 13d7 14bd ec09 653d 8502 a2bc
000000f0: c04e 663d aa49 8e3d 920f 94bd f9e2 92be
00000100: 5caf 0f3c df79 81bc a3d1 333b 98b6 963e
00000110: e13d 61bc 4764 4a3a 4249 b73d 9d27 433e
00000120: 0834 03be 5151 ebbd c06c 7d3e fa65 103d
00000130: 2abf bebd de31 d63d bf12 31be 72f4 1cbd
00000140: c579 ca3d 10ed 1cbe bd5d 5abd 36a1 8dbe
00000150: 6691 4cbd 1c0e 993d 7ce7 f43c 9ab1 313d
00000160: 5d1a 12be 48fb 633a 0bab dc3c 661c 3fbe
00000170: 078c 4fbc 4c93 97ba eb4e 60bd 1c7a ecbd
00000180: cb05 0cbc f59c ac3c aedb c53d 0382 a33d
00000190: 4cc8 aabc 0256 a9bd 2b83 0b3d 67d8 dbbb
000001a0: 6ad8 92bd be10 0e3e 060c 74bd 5ab6 dcbc
000001b0: 6574 a83d 517c 4dbe 070e 0abe 9ae9 2f3e
000001c0: 8f77 dbbb 0930 743d 6ead 2f3d 445a 033e
000001d0: 6791 17be c54f 67bc 7d05 12bb 16b4 bbbd
000001e0: 7d15 893e 0d0e 403d eb9f 6f3d 1fce b73d
000001f0: 1541 dfbd a5db bcbc fa8c 11be b751 ad8f
00000200: 18bf 1b3e 8da2 bfbd 57d6 d6bd 0716 863d
00000210: e4ae 6f3e 79b6 1dbe a881 62bd 649a eabd
00000220: 0955 853d 0344 1c3e dae9 823d 4112 9bbc
00000230: 0c4d 613d 98da 46be eb54 a33d 1e67 253e
00000240: 2fff ed3c 4c5b 1c3d b63f 943b 6aa3 633d
00000250: 390f 823d bc20 88bd 28c7 2abb 0e6a b73d
00000260: f1a5 783b 332c 27bd 8b84 df3d 9f34 923d
00000270: 4f64 363d 45c5 803c b59f dfbc 5a0f acbd
00000280: b57b d83d 6038 4abd ee23 cb3c a8a2 4dbe
00000290: ac98 873d cdac be3d b451 a2bd f109 fabc
000002a0: 330c 773e bdfd 07be 22b0 0b3d 8e66 063e
000002b0: 32dd c83d 96dc 8cbe 74f5 0dbe fb65 943e
000002c0: bb56 143d 16fa f6bc 8ec8 783d b808 85be
000002d0: 0cde 853c f1e8 d23d c4c5 8dbd 714e fe3d
000002e0: cba0 c2bc f91e a83d cca2 0bbe 81b7 093e
000002f0: 792c e33d 7ea2 863d 6e81 1abc 74af d13c
00000300: 1913 8dbd d354 0a3d ba88 3c3e 4b5b 73bd
00000310: ecbc 3f3d e8c9 82bd 5280 fcbd 7145 d93d
00000320: f7c9 123e bb1c e63c 0cb3 8fbd 427d 2cbe
00000330: 25e9 ae3d 174f 263e 5b25 123e b52f 6a3d
00000340: e255 a0bd 5c0e c43c 1d2d 063e 74f4 2abd
00000350: 5315 363d 188e b6bd 8d61 acbc 1430 dabd
00000360: e930 9bbd c4a4 25be d57c 78bd 0c9e a33d
00000370: 7830 43bc 1960 743d 05f8 1cbd 6bf1 930f
00000380: 2545 cfbd 2bab de3d 0419 313e 5b5f 86bc
00000390: 65b6 adbd b820 113e 3780 b93d 5c2e 943d
000003a0: c5a2 b9bc 9b9d 113e d467 b73d 842f 12bd
000003b0: 5368 b83c ca77 443d 3571 8abd 26d6 e7bd
000003c0: 198a 053e 8a56 50be dfdc 3abe 17b7 a1bd
000003d0: e75a 4d3d 89e4 9abd c3d2 033e 5c8d 6ebd
000003e0: 0337 52be d01c 853d 6042 143d a00f 313e
000003f0: 1302 183c d900 2abe dce4 91bd 7182 56be
-0.09623667 0.013098767 -0.1793403 -0.07768786 0.2083614 -0.035450667 0.05609838 -0.008544669
-0.06087726 -0.16811335 -0.15345147 -0.001939198 0.031475898 -0.064504415 0.06983143 0.053134438
-0.0617207 -0.009910777 0.08839529 -0.1447783 -0.041517675 0.115077674 -0.019414479 0.12582822
-0.08256852 0.03331733 -0.14140007 -0.043839194 -0.019670999 -0.09520236 0.16205698 -0.17053068
0.0043474045 -0.173399 -0.2509076 0.011053546 -0.011614946 0.14272116 0.11910418 -0.112943806
0.008671269 -0.0001346666 -0.12050172 0.006909545 0.08316887 0.038959946 0.0268056 -0.07024499
0.17938188 0.039413624 -0.023191674 0.025898788 -0.09889485 0.18875153 0.037826713 -0.016437773
-0.10559794 -0.036337923 0.055917665 -0.019776592 0.056227446 0.06947644 -0.07229532 -0.2868879
0.008769836 -0.015805183 0.0027438186 0.29436183 -0.013747663 0.0007720631 0.0894952 0.1905808
-0.12812817 -0.11490119 0.24748516 0.035253502 -0.093138054 0.1045873 -0.17292307 -0.03831906
0.09886507 -0.15324807 -0.053312052 -0.27662057 -0.04994335 0.07473394 0.029895537 0.043382265
-0.1426787 0.00086968066 0.026937028 -0.18663177 -0.012667662 -0.0011564284 -0.054762762 -0.11546728
-0.008546303 0.021070937 0.09661041 0.07983782 -0.020847462 -0.08268358 0.03406064 -0.006709147
-0.07170184 0.13873574 -0.05958178 -0.02694242 0.082253255 -0.20066954 -0.13481914 0.17178956
-0.006697602 0.059616122 0.042890005 0.12827402 -0.1480156 -0.01411814 -0.0022281103 -0.09165208
0.26774207 0.0468884 0.05850212 0.08974861 -0.10901085 -0.023053953 -0.14213935 -1.7090592e-29
0.15209615 -0.09357176 -0.10490101 0.0654717 0.23406559 -0.15401639 -0.05529943 -0.11455229
0.0651036 0.1526032 0.0639226 -0.018929603 0.05500512 -0.19419324 0.07975181 0.16152617
0.029052345 0.038173005 0.0045241965 0.055575766 0.0635056 -0.066468686 -0.0026058648 0.08955775
0.0037940706 -0.040813636 0.109139524 0.07138943 0.044529255 0.015719065 -0.027297834 -0.084013656
0.1057047 -0.04937017 0.024797406 -0.2008158 0.06620917 0.09310303 -0.0792574 -0.030522319
0.24125747 -0.13280387 0.03410352 0.13125059 0.09807815 -0.27512044 -0.13863164 0.28984055
0.036215525 -0.030148547 0.06073814 -0.25983214 0.016341232 0.10298336 -0.069224864 0.12417305
-0.023758313 0.082090326 -0.13636321 0.13448907 0.11092467 0.06573962 -0.0094302725 0.025596358
-0.06888408 0.0337723 0.18411532 -0.059413236 0.04681103 -0.06386167 -0.12329163 0.10608948
0.14334856 0.028089872 -0.07016572 -0.16844657 0.085405625 0.16241108 0.14272062 0.057174403
-0.07828881 0.023932628 0.13103147 -0.041737035 0.04445393 -0.08913821 -0.02104261 -0.106537014
-0.07577688 -0.16176134 -0.060665924 0.079891294 -0.011913411 0.05966196 -0.038322467 1.458831e-29
-0.1012061 0.108724914 0.17294699 -0.01640289 -0.084820546 0.14172637 0.09057658 0.07235405
-0.022660622 0.14220278 0.089553505 -0.035689846 0.022510683 0.047965802 -0.06759874 -0.113201424
0.13040961 -0.20345512 -0.18248318 -0.0789625 0.05013552 -0.07563121 0.12873368 -0.05824028
-0.20528798 0.06499636 0.036196113 0.17291117 0.009277838 -0.16601886 -0.071237296 -0.20948197

node_embedding.bias f4 [64]
00000000: 6af8 843d ae08 5a3d 4331 88bb 3de8 133b
00000010: 505c ffbc 5333 883c 7d01 9b3c 7597 d8bc
00000020: 1f90 c6bc 98dd 213d 425a 32bd 9ffb 843b
00000030: 07c0 c43c 860f e2bb 32aa a0bc 19b1 ecbc
00000040: a7b5 383d 60e6 023d 2ecb b6bb de6a e63b
00000050: d87e 603c a12e f8bc 09db 893c b5c3 c9bb
00000060: 095d 10bd 33eb 7fbc ddf2 19bc 285b 01bd
00000070: 86c6 5fbd 3abd 4bba 81f8 423d b15d 133d
00000080: b600 d53b 5870 d8bc 40d2 81bc 0efa b9bc
00000090: 3c46 f53b d95a 4d3c fbb6 5cbc 5dd2 1a3d
000000a0: 347f 363c 7cf8 91bd 3683 e8bc 1a37 bfbb
000000b0: d4b2 38bd d4aa aebc 7995 8cbd 4a32 56bd
000000c0: a9a9 553d 1a24 283d 1086 3b3d a95c b5bc
000000d0: a8f5 09bc ab0c b5bc dae7 b9bd abba 193d
000000e0: 68f2 883c 3e08 a63c 8110 c63c e620 41bc
000000f0: a21e 333d 1997 36bd 7b0e 43bc 5857 a83b
0.06492694 0.053230934 -0.004156263 0.0022568845 -0.031171948 0.016626036 0.018921608 -0.026439408
-0.024238644 0.03951797 -0.043543108 0.004058316 0.024017347 -0.006898823 -0.019612405 -0.02889304
0.045095112 0.031957984 -0.00557842 0.0070317825 0.013702117 -0.030295672 0.016828077 -0.0061573633
-0.035244975 -0.015620041 -0.009396282 -0.031581074 -0.054632686 -0.00077720324 0.047600273 0.035978023
0.006500329 -0.026420757 -0.015847325 -0.022702243 0.007485179 0.012533867 -0.01347136 0.037798274
0.011138726 -0.07127473 -0.028382879 -0.005835426 -0.04509242 -0.021321692 -0.06864447 -0.052294053
0.052163754 0.041050054 0.04578215 -0.02213891 -0.008420385 -0.022100767 -0.09077425 0.037531536
0.01671715 0.020267602 0.024177792 -0.011787629 0.043730386 -0.04457769 -0.011905308 0.0051373653

gcn.convs.0.bias f4 [64]
00000000: b06f f9bd b269 7ebd e154 c1bd d0e1 91bd
00000010: 0f21 febd 7084 25be 4d5b e5bd e110 cbbd
00000020: 52c3 b9bd 5000 94bd 2c75 8dbd 9e24 bbbd
00000030: 0b08 dcbd 4b03 bdbd b443 95bd 82ee a5bd
00000040: 34d3 e1bd 7a0c e5bd 4746 d5bd b8e1 12be
00000050: 4bda 28be c7e0 b8bd 3d91 8cbd ae84 1bbd
00000060: a168 20be 74cc dfbd 1f66 13be 0d32 d5bd
00000070: f111 96bd 0e2a 04be ba89 f6bd 7419 d0bd
00000080: 6516 36bd 0e97 d8bd e195 2abe b9c1 99bd
00000090: eeaa 60bd ad38 22be d1bd aabd 9d52 f9bd
000000a0: ac7f e7bd d9e0 fabd e235 d8bd f9f1 0bbe
000000b0: 8437 d0bd c804 00be cb00 c0bd 69a9 ecbd
000000c0: fcba bebd e5f7 01be 90ce e5bd b58c 2cbe
000000d0: a1ad 20be 75ce bbbd 450a e9bd 4898 d1bd
000000e0: 69a6 8ebd 9bc5 85bd 927e 45bd a3e6 e2bd
000000f0: 67d9 e4bd 76a1 f4bd 6dda 04be 79a5 00be
-0.12179506 -0.062112518 -0.094400175 -0.071231484 -0.12408649 -0.16163802 -0.11199055 -0.09915329
-0.090704575 -0.07226622 -0.069071144 -0.091378435 -0.107437216 -0.09229144 -0.07288304 -0.081021324
-0.11026612 -0.1118402 -0.10413795 -0.14343917 -0.16489522 -0.09027248 -0.068636395 -0.03796833
-0.15664913 -0.10927668 -0.14394425 -0.10409937 -0.07327641 -0.12906668 -0.12037988 -0.10161105
-0.04445495 -0.105756864 -0.16658737 -0.07507653 -0.05485051 -0.15841933 -0.08336986 -0.1217396
-0.11303648 -0.122499175 -0.10557152 -0.13666524 -0.10166839 -0.12501824 -0.09375151 -0.1155575
-0.09313008 -0.1269222 -0.11221039 -0.1685055 -0.15691234 -0.09170238 -0.11378912 -0.102341235
-0.06965334 -0.06531831 -0.04821641 -0.11079147 -0.11174279 -0.11944859 -0.12973948 -0.12563123

gcn.convs.0.lin.weight f4 [64, 64]
00000000: 7de8 e1bd 5298 913d cac3 d4bb 0693 533d
00000010: 4575 943e 7269 53bc a6d0 1dbd cff0 09be
00000020: c446 46be a242 dc3d 3a51 cb3c cf7c 12be
00000030: 6dde 5ebb 7d5e 7bbd a079 f93c 88f8 083e
00000040: 0d1f 9cbd 76e2 a43d 8a74 583e 7ecd 64bd
00000050: 661a ee3d 3417 1e3e 198d f4bc 9d40 a23d
00000060: 5dcf 3fbb 5315 9dbc 849c 2cbe d5dd bf3d
00000070: 7b5c 08be 5aa1 e2bc 7255 323a cb32 e7bd
00000080: 6b43 92be 7cbe 9d3c 2e8a 833d 37d0 86be
00000090: cc2e 90be 6028 c4bd 557b c4bd c035 dfbd
000000a0: 0102 b13c a69e e53d e553 ac3d 4870 813e
000000b0: dc3d 9d3c e356 3dbe 2d69 a03d 3bcb 703e
000000c0: 7b67 3ebe 43e2 6fbe e4c8 5f3e 1d94 aabc
000000d0: 13cd c33d c7a7 ed3d 68b5 4b3e 2f0f 833b
000000e0: c329 c03d 3f5c dcbd f368 d7bb 11a4 053e
000000f0: 7d3e 60be 8527 283e 2bc4 253e 654f bcbd
00000100: 67de a63e 6161 073e 1ada 853d 1a89 01be
00000110: 3b14 5cbe 5d62 c43d 57d8 ca3e 193d 39be
00000120: 4061 063e 2638 0ebd 8947 ec3d 3da6 473e
00000130: cbf2 863e 0cf6 663d c38e 93be 781b acbd
00000140: 534a 8b3d 525a 0d3e 7a2a f13c 5762 6fbd
00000150: 76f8 a1bd db1e 70bd 5e08 72be 09c9 013e
00000160: 9c3e 54bd 1633 033f 487e 92be 4664 473c
00000170: 2999 973d f726 7abe 1854 133e 98f4 f5bd
00000180: 3202 013e 2fa1 393d 6182 bcbe 7467 1bbd
00000190: bc16 3bbd 1672 10be ec68 00be fb67 fe3d
000001a0: 6759 b2bd 9ce2 863b fbe5 36be bc1c b43e
000001b0: 5e6c 93be 2635 da3e 10e4 253d c07b 493e
000001c0: c887 9c3e a8cc 2b3e 27b5 f03d 2c4b 4bbe
000001d0: f513 5fbd 549a 053e 30a9 073d e9c4 67be
000001e0: 07b2 533e c2ba 6bbd a3ce debd abdd c43e
000001f0: 5870 a1be ddf2 a0bc e53a 8d3e 3f3c 0d3e
00000200: 13bd b23d 1f91 853e ad16 983e e9e1 393e
00000210: 39cb 51be 257b d83d ced4 49be 8872 82be
00000220: d41d e63c 2e45 463e f985 f0be 075a 96bb
00000230: 1f82 273e 8138 a2be 1732 0d3c 7474 cebd
00000240: 61ba 283e b6c0 87bc e5b9 0d3e 9683 2a3e
00000250: d50b c03e 7921 b83e a8ef d23c de1b 46be
00000260: 7b8c a13e 1236 a3be 63f7 22be 13d4 25bd
00000270: 7268 c8bd f4b0 df3d 0f1e 82bd 6ca0 1bbe
00000280: d08f 923e 72a4 313e 1000 e8bd 7820 57be
00000290: 7807 753e 6c3f 79bd 4fa7 86be d653 23be
000002a0: b171 b93e ff8a a1bd b474 8bbe 7975 203e
000002b0: e814 91bc ce40 95bd 8fab 823e 9622 febd
000002c0: 4204 a0be 3ef1 0c3c cf35 883e d3e0 ec3d
000002d0: 05b2 173e 8281 f7bc 778a 573d 63da b13d
000002e0: 849c 4cbd b29f 9f3e ecf5 a4be 09ad dfbd
000002f0: 28f4 013e 7aa0 113d 3f00 9bbd ffb5 983e
00000300: e09f 8d3d 4ac4 073e fc7c 693e 035e 5c3c
00000310: 7cc2 d0bc 3b48 7f3b 7484 02bd 98d4 20bc
00000320: 5d22 76be b952 9bbd 13ad a73d 0711 ed3b
00000330: 6441 423e 33a3 463d d0cb 3cbe 678b 97be
00000340: d14d f23d 974a 3d3e f954 07bd ba5c 22ba
00000350: a05e 023e 1fbf 7d3e d1ce cd3d 1ea6 18be
00000360: 7589 1e3c 3362 8b3e c1f5 253e 75f0 1c3d
00000370: 2be7 9c3d 7c26 cebd eda1 2a3d 2ca9 293e
00000380: f3b1 923e e2b0 80bd c862 0ebe 87b1 16be
00000390: 8fbe 2e3e c7fc abbe 8542 95bd f2df 3c3e
000003a0: bf3f 523e e2ad 153e 2f93 85be cbf2 693e
000003b0: 68e7 82bd 57b6 a13e 2ca0 7cbc 3132 ab3d
000003c0: 3c1e 15be 63b6 f63d 3bed 5b3e b270 833e
000003d0: 1a48 53be ba18 98bd f5c0 4bbe 2f5d 20bd
000003e0: 1ecd 1dbe 714e 8e3d cac8 49be 372c 7e3d
000003f0: a72a 89bd 7b6c 933d 529b 923d 0139 d63d
-0.11030672 0.07109131 -0.0064930664 0.051653884 0.2899572 -0.012903558 -0.03852906 -0.13470767
-0.19362932 0.10754897 0.024819005 -0.14305423 -0.0034007088 -0.061369408 0.030453503 0.13376057
-0.0762311 0.080510065 0.21138206 -0.055860035 0.11626129 0.15438539 -0.029852437 0.0792248
-0.0029267885 -0.019175207 -0.16856581 0.09368483 -0.13316528 -0.027664829 0.00068028935 -0.11288985
-0.2856706 0.01925587 0.0642284 -0.2633073 -0.28160703 -0.095780134 -0.09593836 -0.10898924
0.0216074 0.112119004 0.08414439 0.25280976 0.019194536 -0.18490176 0.07832561 0.23515026
-0.18594162 -0.23426156 0.21853977 -0.020822579 0.09560599 0.116042666 0.1989342 0.0039996128
0.093829654 -0.10759782 -0.00657379 0.13050868 -0.21898837 0.16421326 0.16188113 -0.09194831
0.32591555 0.13220741 0.0653574 -0.12649956 -0.21492092 0.09589074 0.3961818 -0.18089713
0.13123035 -0.034721516 0.11537082 0.19497009 0.2635711 0.056386992 -0.28819856 -0.08403677
0.068012856 0.13803986 0.0294392 -0.058443394 -0.07908718 -0.058623176 -0.23636004 0.12674345
-0.05181752 0.51249826 -0.2861197 0.012169903 0.0740226 -0.24428926 0.14387548 -0.12009543
0.12598494 0.045319732 -0.3681822 -0.037940457 -0.045675978 -0.1410602 -0.12540025 0.124221765
-0.087084584 0.0041163694 -0.17861168 0.35178173 -0.28793615 0.42618674 0.0405007 0.19676113
0.30572343 0.16777289 0.11753302 -0.19852895 -0.054462392 0.13047153 0.033120334 -0.22633709
0.20673381 -0.057551153 -0.108792566 0.3845037 -0.31531024 -0.019647056 0.27583995 0.13792513
0.08727469 0.2608728 0.297048 0.18152584 -0.2048768 0.10570363 -0.19710085 -0.25478005
0.028090395 0.19362327 -0.46977213 -0.004588369 0.16358231 -0.31683734 0.008617899 -0.100808054
0.16477348 -0.016571384 0.13840444 0.16651759 0.37509027 0.35963038 0.025749043 -0.19346568
0.3155249 -0.3187719 -0.15914683 -0.040485453 -0.09785546 0.10922423 -0.063533895 -0.15197915
0.28625345 0.17347887 -0.11328137 -0.2100848 0.2392863 -0.0608515 -0.2629952 -0.1594995
0.36219552 -0.078878395 -0.27237475 0.15669812 -0.017710164 -0.07287751 0.25521514 -0.124089405
-0.31253248 0.0086024385 0.26603553 0.11566319 0.14814003 -0.030213121 0.052622285 0.08684232
-0.049953952 0.31176525 -0.32218874 -0.10921676 0.12690794 0.035553433 -0.07568406 0.29826352
0.06915259 0.13258472 0.22801584 0.0134501485 -0.025483362 0.0038952965 -0.0318646 -0.009816311
-0.24036546 -0.075841375 0.08187308 0.007234696 0.18970257 0.048495483 -0.18437123 -0.29598543
0.118312486 0.18485485 -0.03304002 -0.0006193627 0.12731409 0.24779938 0.10049213 -0.14907119
0.009676327 0.27223358 0.16207029 0.038315255 0.07661279 -0.10065934 0.04165833 0.1656844
0.2865139 -0.06283738 -0.1390487 -0.14716159 0.1706488 -0.3359129 -0.07288078 0.18444803
0.2053213 0.14617112 -0.26088855 0.22846524 -0.063917935 0.31584427 -0.015419047 0.083591826
-0.14562315 0.12046506 0.21477215 0.25671917 -0.20632973 -0.07426591 -0.19897826 -0.039151367
-0.15410277 0.06948555 -0.19705501 0.062053885 -0.066975884 0.071984254 0.07158531 0.104600914

gcn.convs.1.bias f4 [64]
00000000: ad7e 9e3d 7e4e 663c 92cc 90bd a581 fb3c
00000010: 78e1 e53b be84 1d3d eb34 10bd 4136 88bc
00000020: d773 19bc fd36 403d 21d1 88bd 4164 f9bc
00000030: 164e c4bc 2a74 8dbc 1eee d1bc 99a6 023d
00000040: 6dd5 093d 0e41 04bd a9c6 cdbd 41aa 80bd
00000050: a59a adbd 9218 103d ad41 4cbd 8f29 e4bc
00000060: e85b 46bd fd8d 22bd 1da6 df3c 4703 be3d
00000070: d568 db3d 9607 ffbc c6db f03c 88c3 11bd
00000080: c769 df3d b109 00be 2a33 e03d 01bb 29bd
00000090: 7884 3d3d 48bd 8fbc f601 8c3d 16bd 083e
000000a0: bacd aa3d 2b02 e93c 1e22 623d 1b76 9c3d
000000b0: 0ae3 81bd 7f81 483d d3ca 9bbd 9658 f33c
000000c0: c9ff 903d ce45 f33c 74f9 fc3c 0cdd a7bd
000000d0: b8a2 f1bc c4bb 1b3e 7c92 a23d 43c6 9cbd
000000e0: 24a0 493d 13f6 f6bd 074b b4bb 89b0 a13d
000000f0: 17fb e83d ae11 04be 8a77 1dbd 9af3 663d
0.07739005 0.0140568 -0.07070269 0.030701468 0.0070154034 0.03845667 -0.035206717 -0.016627433
-0.009365997 0.04692744 -0.06680513 -0.030443313 -0.023963016 -0.017267305 -0.025626238 0.03189716
0.033650804 -0.032288603 -0.10047657 -0.06282473 -0.08476762 0.035179682 -0.04986732 -0.027851848
-0.048427492 -0.03968619 0.027300889 0.09277969 0.107133545 -0.031131547 0.029401671 -0.035586864
0.10908847 -0.12503697 0.10947259 -0.041438106 0.04626891 -0.017546311 0.068363115 0.1335338
0.083400205 0.028443417 0.055208318 0.07639714 -0.063421324 0.048951622 -0.07607045 0.029705327
0.07080037 0.029696371 0.030880667 -0.08196458 -0.029496536 0.15208346 0.07938096 -0.07655003
0.049224988 -0.12058654 -0.005502108 0.078949995 0.113760166 -0.1289737 -0.03844408 0.05638466

gcn.convs.1.lin.weight f4 [64, 64]
00000000: 8e36 a6be e441 3c3e 84b8 4dbd a3a4 2bbd
00000010: 068b 133e 675e 3ebd 0249 96be 3598 153e
00000020: 3908 883e 3fd2 a63d 0ca2 6a3e 3eb1 a6be
00000030: 215b 76be a307 09be 2a24 853d 2232 513d
00000040: 7ce5 1c3e c776 293c 3a29 213d a970 b8bd
00000050: ca0e 97be 78fc 2dbd 516a 3fbc a671 2d3d
00000060: 6928 ab3d 3b74 35be 4e83 f1bd 6b86 10be
00000070: 92dd 1e3e 2aa1 26be f403 68bd f99e e1bd
00000080: 532e 67be 450c 863e aaa1 49b9 e208 ad3d
00000090: 9a6a e63d 8606 77be 6730 9a3e 9c67 d5bd
000000a0: 9e6b b7be 9121 90bc 75ec 293e 3c80 2a3d
000000b0: 946b 84bd 3209 9cbe 2f03 89be 9aef 75bc
000000c0: 2ff7 493d 0a9d 66be ab79 68bd 0d7e 81be
000000d0: e4c7 693b 5f4d aa3e 8272 4e3e 5c46 f13d
000000e0: 7a6a 1e3e 4ead afbc f8c4 953e beb2 993e
000000f0: 893e c33e 9834 18be 166d f6bc 6ceb fcbc
00000100: 6a14 4b3d 5dfb a33d f34e 01be 17af f73c
00000110: 018e 48be dea7 45bd 8d43 fcbd dc51 71be
00000120: e47b 2ebd 8f7c 583d e7a3 6abe 520b afbd
00000130: e5d9 4c3e fd05 473e 2057 4cbd aee6 733e
00000140: 52d9 7bbe ec11 563c 611a a73d 0738 9b3d
00000150: 7fad 62bb e0db 22bd dab4 593e c2e0 10bd
00000160: faa8 613d 9edc e6bd ee09 b73d 1cb1 3f3e
00000170: 258b 84be 19e6 913c 437f 243e d46d cd3d
00000180: fe1f 323e a2ce 9bbd 869d e63d 6b8f 9dbd
00000190: 8ec9 193e 9557 033e c11f d43c 921a 163e
000001a0: 0021 473e bd39 ebbc 3a64 38be 51c8 aa3c
000001b0: fbe3 56bc f6ce 36bd 1786 7a3e af1d 273e
000001c0: 589d 86bc ebf8 693e beed 8c3d daf6 943e
000001d0: ded4 85bb 129a 5dbe ce6e abbd 4358 973c
000001e0: c743 ddbc 0291 bc3d 3890 363d a39e 50be
000001f0: 6059 bdbd 17ae d03d 6eff 3e3d b1c3 113e
00000200: f434 df3c 75f0 cebc 098f 213d 4122 bfbd
00000210: 5b0e 82be 85eb 02be 7593 313e e993 91be
00000220: fb1a 623d 2c29 19be 7d20 9cbe 04f9 b43d
00000230: dcd0 a43d c370 79ba 0802 943d 155b ab3d
00000240: f2e7 9cbe a275 103e d75e 3abd ec23 06be
00000250: 2fcb af3d 2410 133e d21a d93d f8f6 113a
00000260: 8745 b63d 33f2 813c 2e31 783d 1894 6fbe
00000270: e3b3 9fbc 6301 fbbd 86c8 b83d 2419 833e
00000280: 597d 813b 4c0a babe d429 13bc 0d51 513c
00000290: 9585 9a3c 47ad 8e3e 7f72 27be 057b e83d
000002a0: f4fd edbd 7f25 b1bd 2eb1 29be 651e c4bc
000002b0: f95e 663e bb2b 14bc 09ba 813e 35e4 32be
000002c0: 1898 30bd 7807 0fbe e35e 1d3c 87cf de3d
000002d0: 0fed 6c3e 9a81 b0bd 3605 3c3e 7587 fb3a
000002e0: 232d 3dbe 8e56 043e f3fd 01be b7b8 b63c
000002f0: f366 b1be b231 e8bd e126 6f3e 5cdd 0c3d
00000300: c7f7 1dbc 8053 06be accb 7fbd 5664 dfbc
00000310: a546 54bd 1a26 b23d d1e0 efbd 7a14 70be
00000320: a361 0bbe f3ed 3bbe d34c 5cbe 9866 2e3e
00000330: 1839 0d3a 6f58 723e 800e b0bd 4db7 5abc
00000340: 6055 efbe c54f 96bb 9e7c 833e 3061 003e
00000350: de87 053e c476 613c 4f96 2b3e 3f9f 54be
00000360: f03b de3d 1961 acbd 7a6d b73d ca35 07be
00000370: 4e99 91bd 47df 803c a1e3 033e a5a8 05be
00000380: 375d 293e 375b 36be 40cb a0bd cde2 b6be
00000390: 1685 21be 3230 7d3e c777 08be 20e4 683e
000003a0: 33d3 f03d 5179 903d ca02 3bbe a32b 5bbc
000003b0: aad6 303e c0d1 553e 6e3e ccbd adf2 4b3d
000003c0: 0dc7 343e 1001 703e a193 4d3d 05d5 85bd
000003d0: f915 a33d 9f89 6cbe c96e 6c3e 8572 abbe
000003e0: 5a57 16be 2d03 943c c584 a23d e66c cbbd
000003f0: 59bc 1dbe bd65 3c3e b5ed 793e e801 4d3e
-0.32463497 0.1838451 -0.050224796 -0.041905057 0.14408502 -0.046476748 -0.29352576 0.14608844
0.26568773 0.0814557 0.22913378 -0.325571 -0.240582 -0.1338182 0.06501038 0.0510732
0.15321916 0.01034326 0.039345957 -0.09005863 -0.2950347 -0.0424771 -0.011683063 0.04234471
0.08357317 -0.1772012 -0.117926225 -0.14113776 0.1551421 -0.16272417 -0.056644395 -0.1101665
-0.22576265 0.26181236 -0.00019229078 0.0844896 0.112508014 -0.24123582 0.30115053 -0.104201525
-0.35824293 -0.01759413 0.16594107 0.0416262 -0.064658314 -0.30475765 -0.2676024 -0.015010739
0.049308 -0.22520843 -0.056756657 -0.25291482 0.0035672123 0.33262154 0.20160869 0.11780998
0.15470305 -0.021444943 0.29251838 0.30019182 0.38133648 -0.14863813 -0.030081313 -0.030873977
0.049580015 0.08006928 -0.12627773 0.030234857 -0.1958542 -0.048255794 -0.12317572 -0.23566383
-0.04259862 0.052853163 -0.22914086 -0.08547081 0.20004995 0.19435878 -0.049887776 0.23818466
-0.2459462 0.013065796 0.08159328 0.07579046 -0.0034588275 -0.03976047 0.21260396 -0.035370596
0.05509279 -0.11272548 0.08937441 0.18719906 -0.2588741 0.017809914 0.16064171 0.10030714
0.17395017 -0.076077715 0.11260514 -0.076933704 0.15018293 0.12826379 0.025894048 0.14658573
0.19446182 -0.028714055 -0.18006983 0.020847471 -0.013115878 -0.044630967 0.24465214 0.16319917
-0.01643245 0.22848861 0.06881283 0.29094583 -0.0040842136 -0.21640804 -0.08370744 0.018474704
-0.027009858 0.092073455 0.04457113 -0.20373015 -0.092455626 0.10189455 0.046630315 0.14234807
0.02724693 -0.025261143 0.03944305 -0.09332705 -0.25401577 -0.12785156 0.17341407 -0.2843316
0.05520151 -0.14957112 -0.30493537 0.088365585 0.08047649 -0.0009515399 0.0722695 0.08366982
-0.3064571 0.14107373 -0.045500603 -0.1309964 0.08583676 0.14361626 0.10600819 0.0005568112
0.0889998 0.01586256 0.060593776 -0.23396337 -0.019494956 -0.12256124 0.09022622 0.25605118
0.00395171 -0.3633598 -0.008982141 0.012775672 0.018862525 0.27866575 -0.1635227 0.11351589
-0.11620703 -0.0864973 -0.16571495 -0.023940274 0.22497167 -0.009043629 0.25337246 -0.17469867
-0.043113798 -0.13967693 0.009605142 0.108794264 0.23137306 -0.086184695 0.18361363 0.001919015
-0.1847425 0.12923643 -0.1269453 0.022304876 -0.34648857 -0.11337604 0.23354675 0.034390792
-0.009641594 -0.1311779 -0.062450096 -0.027269524 -0.051825184 0.086986735 -0.11712802 -0.23445311
-0.13611464 -0.18352489 -0.21513681 0.17031324 0.0005387231 0.23666547 -0.08596516 -0.013349366
-0.46744823 -0.004587146 0.25681013 0.12537074 0.1304011 0.013761226 0.16756557 -0.20763873
0.10851276 -0.084169574 0.08956428 -0.13204113 -0.07109319 0.015731467 0.12879802 -0.13052614
0.16539465 -0.17808233 -0.07851267 -0.3571991 -0.15773425 0.24725416 -0.13326941 0.22743273
0.11759033 0.07054389 -0.18262783 -0.013377103 0.17269388 0.20880795 -0.09972845 0.04979198
0.17654057 0.23437905 0.050189618 -0.06534771 0.07963175 -0.23099373 0.23089136 -0.3348581
-0.1468176 0.01806792 0.0793548 -0.0993288 -0.1540388 0.18398185 0.24407084 0.20020258

gcn.convs.2.bias f4 [64]
00000000: 8515 81bc 6c43 143d f4d6 c6bc 4ad4 59bd
00000010: 6538 12be 2f53 fe3c 5f45 2ebd aea6 3bbe
00000020: e7ec 753d 5bc0 2abd 7646 1b3d 5b68 f7bc
00000030: 0e5d 5dbd e43f 083e 38e6 fd3d e42e b8bd
00000040: 12d8 78be c372 aa3c 965b 9fbd 1b9c 173d
00000050: f055 253d 3954 a9bd aa52 b93c 6131 20be
00000060: b7df 10be e919 533d fe69 493e bbd9 9f3d
00000070: eab0 debd 1a72 3e3d 5b28 c4bd 7675 6bbe
00000080: a4c9 d43c 344c 4ebc 3c45 f13d 1ccf 2fbe
00000090: cdf3 d1bd 0f6e 813d a05c 6b3b 39f4 1a3e
000000a0: aa00 6ebe e4db 15be 6de7 4ebd 3d29 853d
000000b0: 1063 93bd 8117 30bd e5f3 5cbe ca77 0ebe
000000c0: ec72 0ebd a0d1 513d 7c4d 263e 96e6 39be
000000d0: 61ff f33d 0347 afbd 0993 403e 6f02 903d
000000e0: 747d 1fbe 5261 0f3d fe31 a9bd a02a f0bd
000000f0: 2fc3 b73d 3e43 4a3d 22d0 9d3b 050e c6bd
-0.015757332 0.03619711 -0.02427242 -0.05318097 -0.14279325 0.031045524 -0.042546626 -0.18325302
0.06004038 -0.04168735 0.037908994 -0.030201128 -0.054043822 0.13305622 0.12397426 -0.08993319
-0.24301174 0.020806676 -0.077811405 0.03701411 0.04036516 -0.08268017 0.022622425 -0.15643837
-0.1414784 0.05153838 0.19669339 0.07805201 -0.108735874 0.046495534 -0.0957801 -0.22994027
0.025975056 -0.01259141 0.117807835 -0.1716885 -0.102515794 0.0631982 0.0035913363 0.15132226
-0.23242441 -0.14634663 -0.050513674 0.06502006 -0.07196629 -0.042991165 -0.21577413 -0.13912883
-0.034777567 0.051225305 0.16240495 -0.18154368 0.11913944 -0.08558466 0.1880609 0.07031714
-0.155752 0.03500492 -0.082614884 -0.1172688 0.08972775 0.049380533 0.004816071 -0.09670643

gcn.convs.2.lin.weight f4 [64, 64]
00000000: 0dfc 37bd 7592 7c3d b2fd 29be 3b66 d2bb
00000010: 86df 2abe 7cfe 473e 5bba 9cbd d93b 28bd
00000020: 2ac8 9b3d e69b 363d b3ff 23bd c6cd 3c3e
00000030: 8944 873d 9654 2dbd ffe9 0e3e 841f 91bb
00000040: 1ec7 00be 1951 a7bd 01f7 4c3d 05e4 443e
00000050: a6d4 1f3d ea27 f3bd 2318 c0bd 920d 07bd
00000060: 63a4 de3d ccc0 1abe 704c c73c 2a49 b63e
00000070: b351 2d3e b829 1dbb 6add 1e3d c3d3 e33d
00000080: f3cc 17be 59cb b03c 3117 193d eab8 1b3d
00000090: db51 acbd 7c02 473e 1be9 c6bd 03b5 d33e
000000a0: bca0 3cbe cd0a 0a3e 3ea0 f8bc 10e0 b53e
000000b0: 76f7 413e 9e26 2bbd 50f0 eabd c2de 27bd
000000c0: cd18 4cbd cee2 1c3e 87cc 5d3c 834c 2ebc
000000d0: 6b6e db3c d365 4a3e 2081 b2bd bb30 eebd
000000e0: 34d7 9f3d c97f 3b3e 7763 c8bd 4869 6d3e
000000f0: 1be0 263e 7b47 233e d339 023e 5e8f 33be
00000100: 0dfd 59bc 89e9 bd3d 0b2b c33d 6112 7cbd
00000110: 6732 843e 31f8 8dbd 0960 673e f010 553e
00000120: bf7c c8bd 9d18 3b3e 332a 8a3d 7de2 5f3d
00000130: 4afe 4bbc f6c2 fc3d ced3 44bc 4300 a33c
00000140: 3e88 4a3e b212 ba3d 53b3 d53c 792b e53d
00000150: 44a3 a33d 3934 25bd b5a1 52bc ec9c f03d
00000160: bc48 87bc 59b0 3c3e d781 763c 20ad c3be
00000170: 99c0 93be 4892 173e 2f05 9c3d a65d b13c
00000180: b7d4 f3bd b11c d1bc cf4b c6be 6ae6 3ebe
00000190: 9a33 d13d d7cf 74be 859b 303e bbb5 e8be
000001a0: c7eb 163e 8645 8bbe 9d76 563e 5508 bcbe
000001b0: d4ce 033e ea03 0f3e c879 a23c a424 0f3e
000001c0: 3a24 52bd 6e5c 1b3e eb5a fcbd ff0d f6bd
000001d0: c806 3b3e d05d 79be 542b a3bc a6b0 35be
000001e0: 5686 703e a366 413d 8744 293e 9da2 a5be
000001f0: 06c4 aabe 3e19 1ebe 5165 213e cecc 363d
00000200: 03b7 0f3d eba3 29be 723d 653d aab7 28bd
00000210: c37f 113e 6ec1 1bbd 694f a83d 986a 533d
00000220: 0206 f43d aa09 37be 9d3f 243d b15a 32be
00000230: 5aec 203d d176 c03d ead2 d1bd 44fa 17bd
00000240: 4538 1dbe 896b 0c3d 9ac0 a2bd 45e1 27bd
00000250: ca20 413e a4aa 6ebe a824 f03d 6799 843d
00000260: 70d0 86bd d137 04bd c754 fe3d f559 a03e
00000270: b636 413e e0c6 2c3e e105 e9bc 555a 42bd
00000280: 20c6 7dbe 5c30 f63d 6446 6d3e 669f 103d
00000290: 6190 76be e8ed 483e b24e b7be dfd4 653e
000002a0: b3ac 4bbe 6822 9b3e 9e71 cabe 29f8 603e
000002b0: 6cab 3b3e 1527 34be 0e20 9d3c 7296 7bbe
000002c0: b476 99be 33c3 8cbb a116 883e f98f f4bd
000002d0: 509c aebc 33a7 46be e532 70be 2184 063d
000002e0: 32a8 a1be 2cf9 9c39 f5c8 2abb 409c 403e
000002f0: aa81 4b3e 6223 433e 2efd ea3d e6dc 7abe
00000300: 2507 98bd 3be5 e4bd efcf 64bd 7551 e13d
00000310: b644 30bd 1818 293d b3ae c3bd fab4 2c3e
00000320: 9dd5 0abe e0d8 ba3e 232e 5fbe 0a89 51be
00000330: 236a d43c f45a 92bd 389f 1dbd cae9 7d3e
00000340: e454 e73d ca07 09be 1768 3fbd 6b91 8dbe
00000350: 665a 0bbd 2fb8 7e3e 7ddf e2bd 32b3 58be
00000360: 40dd 05bd c98c 913e d39b 3dbe 6c11 a1bd
00000370: 17d1 2fbd 85a8 223e 00d7 3dbe 8777 1fbe
00000380: 191c 7e3e 6be9 07be 0926 05be 4d1d 44be
00000390: 50d0 af3e 0f97 683d e125 e43e 2c2a 1f3e
000003a0: 44d6 b13e 08d2 7dbe 5b4c 4c3e ccac 7dbd
000003b0: cae7 d0bc e02f 9e3e f266 83be 3779 7cbd
000003c0: b800 2f3e 98a9 183e 587e 37bd a8b5 95be
000003d0: e7c2 87be 3bd3 773d db4c 923e 55e3 22be
000003e0: 7b8d a73e 0a54 8bbe c368 2dbd a34b 373d
000003f0: a00b 953d cc37 ebbb 7567 a33d c2cd 6f3e
-0.04491811 0.06166311 -0.16600683 -0.006420878 -0.1668683 0.19530672 -0.07652732 -0.0410727
0.07606538 0.04458227 -0.040038776 0.18437871 0.06604869 -0.042316996 0.1395645 -0.004428806
-0.12575957 -0.08169765 0.05004025 0.19227608 0.039021157 -0.118728474 -0.09379604 -0.032971926
0.10871198 -0.15112609 0.02432844 0.35602695 0.16925697 -0.0023981165 0.038785376 0.11124375
-0.14824276 0.021581339 0.037375633 0.038018145 -0.0841405 0.19434541 -0.0971243 0.41349038
-0.1842069 0.13480683 -0.030349847 0.3552251 0.18942055 -0.041784875 -0.11471617 -0.040983923
-0.04982834 0.15320894 0.013537533 -0.010638359 0.02678605 0.19765405 -0.08716035 -0.11630388
0.078047186 0.18310465 -0.097845964 0.23184693 0.16296427 0.15945236 0.1271737 -0.17535159
-0.013304961 0.09273059 0.09529694 -0.061540965 0.25819704 -0.069321044 0.22595228 0.20807242
-0.097894184 0.18271108 0.0674633 0.054659355 -0.012450764 0.12341873 -0.012013389 0.019897586
0.19778535 0.09085597 0.026086485 0.111899324 0.07990125 -0.040333007 -0.012855937 0.117486805
-0.016514175 0.18426646 0.015045605 -0.3821802 -0.28857878 0.14801896 0.07618176 0.0216511
-0.119058065 -0.025526376 -0.38729712 -0.18642583 0.1021492 -0.2390741 0.17246826 -0.4545115
0.1473838 -0.2720148 0.20943685 -0.36725107 0.12871867 0.13966337 0.01983346 0.13978821
-0.05130408 0.15171978 -0.12322029 -0.12014388 0.18264306 -0.24352193 -0.019918121 -0.17743167
0.23488745 0.047217023 0.16530047 -0.32350627 -0.3335268 -0.15439317 0.15761305 0.04462891
0.035086643 -0.16566436 0.055966802 -0.04119078 0.14208893 -0.038026266 0.08218271 0.051615328
0.119152084 -0.1787478 0.04009973 -0.17417409 0.039287902 0.093976624 -0.10245307 -0.037103906
-0.15353496 0.03428224 -0.07946892 -0.04098632 0.18860164 -0.23307282 0.117257416 0.06474572
-0.06582725 -0.032279793 0.12418514 0.31318632 0.18868527 0.1687274 -0.028445186 -0.04744943
-0.2478261 0.120209426 0.23171383 0.035308264 -0.24078514 0.19622004 -0.35802227 0.22444485
-0.19890098 0.30299687 -0.39539808 0.21969666 0.18327111 -0.17593034 0.019180324 -0.24569109
-0.29973376 -0.0042957305 0.26579764 -0.11941523 -0.02131477 -0.19399719 -0.23456915 0.03284085
-0.31573635 0.00029940286 -0.002605972 0.18809605 0.19873682 0.19056466 0.114740714 -0.24498329
-0.07423238 -0.11176535 -0.055862363 0.11001865 -0.043034278 0.041282743 -0.095548056 0.16865912
-0.1355805 0.36493587 -0.21794944 -0.20462433 0.025929516 -0.07146254 -0.03848192 0.24796215
0.112954885 -0.13381878 -0.046730127 -0.27650008 -0.034021758 0.24874948 -0.11077783 -0.21162108
-0.032681704 0.28427723 -0.18516473 -0.07864651 -0.042924013 0.15884598 -0.18539047 -0.1557294
0.24815406 -0.13272636 -0.1300279 -0.19151802 0.34338617 0.056784686 0.4456015 0.15543431
0.34733784 -0.24787152 0.19951002 -0.06193237 -0.02550115 0.308959 -0.2566448 -0.061639037
0.17090118 0.14908445 -0.044798225 -0.29240155 -0.26515886 0.06050418 0.2857426 -0.15907033
0.3272513 -0.27212554 -0.042336237 0.044749867 0.07277608 -0.0071782824 0.07978717 0.23418334

edge_feature_mlp.0.weight f4 [64, 5]
00000000: a6c6 580a 87d6 5a0a b231 4a8a dbf2 558a
00000010: bad9 4c8a 974e 590a cf63 440a f675 480a
00000020: 3a0e 540a 9124 580a 4616 560a fa0b 568a
00000030: 0bd2 5b0a 88f0 458a ccb8 578a 4693 518a
00000040: 2288 4f0a 32c7 630a d1f8 518a 4dae 4f8a
00000050: 5c18 578a 1f26 528a 754a 500a 7d51 508a
00000060: 0025 6a0a bd68 540a 8dc7 468a ffd9 508a
00000070: 879f 5b8a aa85 570a 6025 5a8a 6110 5c0a
00000080: 9642 588a 2bed 488a 25e9 608a 26db 538a
00000090: 4eef 548a 708f 4c8a 3284 640a 40ac 520a
000000a0: 201c 5c0a ed24 500a 2ce6 520a 24fa 4f8a
000000b0: 45d4 5a0a c14b 570a 8be5 4d0a 2d88 588a
000000c0: f3d1 498a 1f13 540a fc1a 568a db3d 5a0a
000000d0: 5a2a 5a0a 339b 5a8a 98f7 588a 79eb 4e0a
000000e0: c5ed 588a fd5c 618a daf2 510a 0a6c 528a
000000f0: e6ce 4d0a 3b54 570a 7a79 450a 2ce2 590a
00000100: c88b 4b0a be80 578a 0b33 4a0a 1828 5c8a
00000110: f17f 440a 6f3f 5a8a be11 4c0a b544 520a
00000120: 9ecb 558a 547c 4c8a f982 4d0a 6058 550a
00000130: 01df 560a d052 510a 0bbe 470a 3288 5a8a
00000140: 2aa5 5b0a fe8f 550a 6501 500a 37a9 510a
00000150: f781 4e0a d806 4b8a b11a 520a 5be0 498a
00000160: c030 550a 308f 5b8a d9c2 6b0a 6355 5a8a
00000170: 10bf 578a a7f1 490a 9be9 5a8a 3f17 4e8a
00000180: 116d 518a 419b 4a0a 70e2 4a0a 44a9 598a
00000190: f384 4b8a 1890 578a 9777 490a c850 4b8a
000001a0: 137a 5b8a 4898 470a b5a4 530a 824c 548a
000001b0: 0a24 5a8a ab70 590a 6d03 580a 6f2d 510a
000001c0: efa2 5a8a c540 500a b080 4c0a 5ec9 450a
000001d0: d86b 678a b9eb 548a 4d02 6b8a 672e 4b0a
000001e0: 3416 548a 877d 528a d3a1 550a 9b54 4a8a
000001f0: 3c96 580a 9d5e 4a0a 81f6 510a d308 4e0a
00000200: 5d5e 728a 9611 4d8a f279 568a bda8 570a
00000210: 0c5a 540a 4607 5a8a 50f9 4f0a d54f 588a
00000220: e014 4b0a 7433 598a aa4c 4e8a 3380 508a
00000230: 1366 550a 36be 598a 7c1e 5b8a 6d5d 500a
00000240: 6171 510a ac81 560a cb0b 538a 6a8b 4a8a
00000250: a1c2 498a eb83 4c0a c836 560a 791a 558a
00000260: 86b1 5a8a 3866 5a8a 2d43 458a 21ee 590a
00000270: bc17 4d0a 12cd 5b0a 71ab 4a8a 8508 4c0a
00000280: 82d4 530a 8861 530a cefd 4f8a f3af 4f0a
00000290: cef5 470a cf57 710a 0b04 480a 9c7a 5b0a
000002a0: 5c18 568a 805b 5d0a a004 5a0a ff1d 4f8a
000002b0: d0fc 6a8a b5e3 518a f6da 558a 018c 4d0a
000002c0: 69a3 508a b042 4a0a 841b 498a 553f 540a
000002d0: a22b 470a 7443 4f0a d3de 528a 1a05 4d8a
000002e0: 323c 598a 608d 4c0a f624 540a 03d4 5b0a
000002f0: cee2 4f8a f9c7 598a 12b8 5c8a 52ab 5a8a
00000300: c634 5b0a 2a95 478a 7bc5 448a 0d0a 540a
00000310: 439e 450a 8f6b 448a a629 460a 593b 6c8a
00000320: e70f 528a 9267 710a facb 4b8a 91f9 4b0a
00000330: 1063 560a f309 570a 5943 548a 0934 4f0a
00000340: 9893 4f8a 899f 520a 8690 518a 906f 450a
00000350: 4819 4e8a 7929 4c0a 57ca 4c8a 4b40 498a
00000360: 1b13 548a 5d74 558a 54e1 4d8a 44ca 518a
00000370: 0d88 458a fece 578a 5025 4e0a 114a 520a
00000380: 1fdb 440a 487a 528a e2b7 510a fe3f 488a
00000390: eb02 4a8a c30c 478a 9793 500a 322e 5a8a
000003a0: e074 540a 521a 600a 25bb 5b8a a343 570a
000003b0: d695 530a 2c1f 5b8a b505 528a d00f 5d8a
000003c0: d571 5e8a f174 570a 44bb 510a 3482 508a
000003d0: 39ea 500a 0fb0 558a 271d 4f0a 61b2 5d0a
000003e0: 0aa9 658a 868d 508a d528 598a 2d0d 5c0a
000003f0: 2879 5a0a 7256 6c8a f8a0 530a 21d0 5b0a
1.0437383e-32 1.0536666e-32 -9.735293e-33 -1.0301253e-32 -9.8631925e-33 1.0462951e-32 9.455829e-33 9.651836e-33
1.02101044e-32 1.0406899e-32 1.03079144e-32 -1.0305978e-32 1.0583971e-32 -9.530444e-33 -1.038663e-32 -1.0090683e-32
9.992291e-33 1.0967117e-32 -1.0109781e-32 -9.99947e-33 -1.0356455e-32 -1.0118302e-32 1.00288395e-32 -1.0030162e-32
1.1273649e-32 1.0227128e-32 -9.5708846e-33 -1.0055836e-32 -1.057447e-32 1.0377013e-32 -1.0503348e-32 1.0595695e-32
-1.0412545e-32 -9.674256e-33 -1.0829057e-32 -1.0200498e-32 -1.0252437e-32 -9.84922e-33 1.1002664e-32 1.0143529e-32
1.05979044e-32 1.0021781e-32 1.0154423e-32 -1.0013734e-32 1.0536242e-32 1.0366121e-32 9.913563e-33 -1.04256335e-32
-9.717285e-33 1.0211025e-32 -1.03088004e-32 1.0507952e-32 1.0504284e-32 -1.0525508e-32 -1.0446589e-32 9.962827e-33
-1.0444741e-32 -1.0850845e-32 1.0108659e-32 -1.0131452e-32 9.909304e-33 1.03677154e-32 9.508052e-33 1.0490708e-32
9.8003844e-33 -1.0376087e-32 9.735546e-33 -1.06001555e-32 9.46112e-33 -1.0508249e-32 9.82558e-33 1.01240546e-32
-1.0293873e-32 -9.845626e-33 9.895024e-33 1.02721984e-32 1.03456676e-32 1.0078559e-32 9.6172446e-33 -1.0521934e-32
1.057553e-32 1.0282659e-32 1.0015098e-32 1.009481e-32 9.942983e-33 -9.775382e-33 1.0116152e-32 -9.7199945e-33
1.0264746e-32 -1.0571397e-32 1.1351485e-32 -1.0512378e-32 -1.0387808e-32 9.723248e-33 -1.05402545e-32 -9.922911e-33
-1.0083497e-32 9.755146e-33 9.7685344e-33 -1.0480005e-32 -9.7990994e-33 -1.03789745e-32 9.70029e-33 -9.789288e-33
-1.0567426e-32 9.6101424e-33 1.01902584e-32 -1.0221818e-32 -1.05030964e-32 1.04693604e-32 1.0400666e-32 1.0071529e-32
-1.05269626e-32 1.00270175e-32 9.846446e-33 9.523078e-33 -1.11425286e-32 -1.0251763e-32 -1.1315271e-32 9.782822e-33
-1.0211605e-32 -1.0134741e-32 1.0286013e-32 -9.741859e-33 1.0428278e-32 9.743741e-33 1.0109346e-32 9.920199e-33
-1.1669624e-32 -9.8736985e-33 -1.03266606e-32 1.03836096e-32 1.0224365e-32 -1.0497686e-32 1.0013578e-32 -1.04150364e-32
9.7780206e-33 -1.0457847e-32 -9.932958e-33 -1.0038947e-32 1.0274775e-32 -1.0483945e-32 -1.05502e-32 1.0032407e-32
1.0084308e-32 1.0328114e-32 -1.01614985e-32 -9.752167e-33 -9.7144036e-33 9.847054e-33 1.03140284e-32 -1.0260556e-32
-1.0529707e-32 -1.05155434e-32 -9.497839e-33 1.0492957e-32 9.874855e-33 1.0583036e-32 -9.758191e-33 9.823845e-33
1.0199249e-32 1.0177624e-32 -1.0014423e-32 9.99978e-33 9.627732e-33 1.1620243e-32 9.63041e-33 1.0567527e-32
-1.0308307e-32 1.0657972e-32 1.0497188e-32 -9.972329e-33 -1.1314239e-32 -1.0105811e-32 -1.0296759e-32 9.896723e-33
-1.004557e-32 9.738489e-33 -9.682973e-33 1.021934e-32 9.589708e-33 9.979374e-33 -1.0153041e-32 -9.8713505e-33
-1.04594914e-32 9.8488324e-33 1.021438e-32 1.05843414e-32 -1.0009345e-32 -1.04857806e-32 -1.06272345e-32 -1.052854e-32
1.0554392e-32 -9.609556e-33 -9.474199e-33 1.0209319e-32 9.514971e-33 -9.457286e-33 9.5411864e-33 -1.1374149e-32
-1.0114123e-32 1.1623207e-32 -9.812458e-33 9.821033e-33 1.0322357e-32 1.0353745e-32 -1.02200954e-32 9.976474e-33
-9.994447e-33 1.01411374e-32 -1.0090166e-32 9.5061876e-33 -9.923294e-33 9.830043e-33 -9.8602986e-33 -9.68989e-33
-1.0211022e-32 -1.02774625e-32 -9.9127705e-33 -1.0101026e-32 -9.510793e-33 -1.0390804e-32 9.925557e-33 1.01250626e-32
9.478269e-33 -1.0134131e-32 1.00975685e-32 -9.641685e-33 -9.726495e-33 -9.583902e-33 1.0042594e-32 -1.05050066e-32
1.02294104e-32 1.0790158e-32 -1.05796644e-32 1.03645945e-32 1.01874615e-32 -1.0550329e-32 -1.01122056e-32 -1.0643737e-32
-1.07103206e-32 1.0373868e-32 1.0098205e-32 -1.0039324e-32 1.0058888e-32 -1.028869e-32 9.9721704e-33 1.0674312e-32
-1.1057742e-32 -1.0041453e-32 -1.04558496e-32 1.0595093e-32 1.0519105e-32 -1.1379245e-32 1.0189555e-32 1.0583611e-32

edge_feature_mlp.0.bias f4 [64]
00000000: d094 ebbc 6c8c 433e 62a5 319e e03e 703d
00000010: 195b c48e 5058 763e 7e01 99b9 dd72 638a
00000020: aade 01ae ab93 7e3e 2ee0 71bc c7c8 7e3e
00000030: fffc 37b9 8063 2a3e 64f9 ebb9 f9a5 1abb
00000040: a00b 1d3e 66a3 b43e cc1a 25a7 9460 8f3e
00000050: eb33 73ba 77e2 75b8 35fb 4c3e 6cb3 7d3d
00000060: c61d beac 9053 733e 512e e1bb 9f30 093e
00000070: 9848 6c3e 5137 7eb6 879a 763e 49b1 02b0
00000080: 0a4c 913d 1646 3f3d 438f e8b4 6855 37b7
00000090: 3f80 198b 0eb8 913e 91c2 2a3e 2480 60ab
000000a0: 41a7 8db7 8e6f 263d 2aff 3d3e 92b0 843e
000000b0: 1dba 9e97 dd73 3a3e d1ad ec3c c993 4a3d
000000c0: 7fd6 083e 0b80 93bc c951 a993 dd59 7dbb
000000d0: 7da5 ae91 8137 26bc bb41 923e 6fc5 37bb
000000e0: 375c 5a8a 5f5b 9d3e 21c4 563e 9b0f 99bb
000000f0: 4c3c 4d9e 5520 133e b290 103e 21c1 f6b7
-0.028757483 0.19096535 -9.404502e-21 0.058653712 -4.8405454e-30 0.24057126 -0.00029183546 -1.0951256e-32
-2.952897e-11 0.24861018 -0.014762921 0.24881278 -0.00017546488 0.16639519 -0.00045008503 -0.0023597463
0.15336466 0.35280913 -2.2912876e-15 0.2800337 -0.0009277451 -5.8623464e-05 0.20017703 0.06193869
-5.4034303e-12 0.23762345 -0.0068719764 0.13397454 0.23074567 -3.7881148e-06 0.24082385 -4.754566e-10
0.070945814 0.0466977 -4.3317604e-07 -1.0927535e-05 -2.956321e-32 0.28460735 0.16675784 -7.9758617e-13
-1.6886393e-05 0.04063373 0.18554369 0.25915962 -1.0257492e-24 0.18208261 0.028891476 0.049457345
0.13363074 -0.018005392 -4.2742244e-27 -0.00386583 -2.755435e-28 -0.010145069 0.28565773 -0.0028041264
-1.0513662e-32 0.30733773 0.20973255 -0.00467105 -1.0865079e-20 0.14367802 0.14117697 -2.9415418e-05

classifier.0.weight f4 [64, 192]
00000000: 87e6 b7bd 37b4 b93d dede 67bd ef88 8f3e
00000010: b5b6 983c bd03 073e 23c4 ddbd 5ae1 c93c
00000020: dcdd 1cbe 419a 03be 669c f9bd 9dc8 23be
00000030: d902 653e a0da 243e 35f7 74be 62df e23d
00000040: 8de9 02be 7d0a 253e f1cc 323e 78a9 483e
00000050: af18 07bd c074 293e 11df 253e fa97 5bbe
00000060: f039 043e dbcd 523e 3830 7f3e 3f4b a53c
00000070: 3189 56be 184f 1d3e 7431 61be ffb4 dabd
00000080: 44f4 b63d 2405 b5bd 670b 60be d3d5 aa3d
00000090: 0cbb edbd 92b1 df3d 0b24 6fbe 6422 16be
000000a0: 19bf cf3d f760 b63c 4dda dbbd bdd0 a63c
000000b0: 1ffc 4abd 04f8 713e b1f9 6cbd 7efe ccbd
000000c0: a5de 48bc 5121 033e 2acf 123e 1591 7fbe
000000d0: f5e6 cdbd ac3c ed3d bc39 23be 9f02 7ebe
000000e0: ab6f 1fbe edee 61be cc07 dcbd 7033 70bd
000000f0: 72ab 213e 0369 0cbe 91d1 643e 6e8a 1bbe
00000100: d84f d33d 2908 adbd 120c 363e 80cd e3bd
00000110: 1a3f febd 6021 01be a960 bc3d 9577 23be
00000120: 04fa 1b3e be56 0bbd 3428 d93d 5017 c93d
00000130: 6abd c9bd a7e8 86bd c630 d23d 1742 49be
00000140: 7980 6abd 419a dcbd 9cb5 fcbd faf0 42be
00000150: 43d3 0abd b95d 99bc ff29 2bbe a50b c13d
00000160: 1802 55be 2ba7 4abe cfaf e2bd bf76 1cbe
00000170: 9ad8 e53d 5ca8 c9bd 7147 b23d e716 f9bd
00000180: fe19 cfbd 3965 973d 7027 313e b57d f1bd
00000190: 0d9f a83b 1d49 3abe bda4 243e 2aa3 3f3e
000001a0: 553f 82be 8984 2dbe 950f bb3d 151f a3bd
000001b0: 9dc0 a43d b710 0abe a015 14bc acc5 fc3d
000001c0: 3585 dabc 26f8 00be 6cfc 04bd b292 e83d
000001d0: 2514 163e 0000 13be 1135 113d f5b6 ac3d
000001e0: ba0f 643d 2bf9 b33d 0504 ae3d 8ef6 453d
000001f0: 86f9 81bd fa2a ee3d 8ccd 02be 7278 813d
00000200: c511 df3b dde0 9cbd be93 498a 77f1 62bd
00000210: a157 040e 5ab7 1a3d 1c29 5b8a 5014 680a
00000220: c55c 5a0a 3892 f53c 9ccf 4d0a 3806 d43c
00000230: ca3f 4f0a 20dd b53d f206 500a fd6f 7639
00000240: c9a9 74bd e990 cb3d 0b0d 528a f278 69bc
00000250: 0552 851e 30dc 558a ca8b 95bd 05c2 863c
00000260: b845 4c8a 5a4a 02bc 8412 b130 ae60 c3bd
00000270: 378d 203d 5ccb 528a a23f ff3c b329 508a
00000280: 6fe9 90bd 8e4e 4b3d 1fdd 578a f159 4e8a
00000290: ecf9 4a0a b088 283d 152a 453c 2144 4c8a
000002a0: 4056 598a c7fc 3bbc 69b8 b6bb f36b 323d
000002b0: 62b7 1b94 a002 f7bc 8974 66bb 4f21 453d
000002c0: a696 593d 006f eda4 2c48 f98f 33a8 2a3a
000002d0: 134f f611 af05 56bd 5aa6 fa3b a23e b8ad
000002e0: 3a59 570a 0dbb 2f3d bda5 bb3c f07e 4827
000002f0: 65f6 cb9b 88f8 253c 2bc2 953d cd88 538a
00000300: 3c00 ba3c a3ec 03be b01d 973d 37ba 1fbe
00000310: 8fdc 113c 5e66 98bd a2e6 013d b1c8 3abe
00000320: 8eb5 f03d f341 73bc 56e3 083e 7e29 b33c
00000330: 01cf d9bd 87da 57bd 6936 2c3e 6f9c 2dbe
00000340: abd2 b3bd 2660 09be 8a39 61bd f44a acbd
00000350: fee1 06bd 38f7 a0bd 212b 3abe a369 093e
00000360: 44b4 c6bd c229 3ebe 34e0 53bd 0366 673c
00000370: 1d2b f93d 07d4 3fbe 977f 563b 35d6 65bd
00000380: dd23 8fbd 03fb 483d e361 da3d 29e2 46be
00000390: 67c7 11bd 68d7 90bd 9402 cd3d 5e25 5d3e
000003a0: 9f28 73be d4fd c8bd 8c74 a53d d8d4 7b3d
000003b0: 5fdc 2e3d 476d 13be 9096 49bd f95a 683d
000003c0: a711 58bb 1a19 18bc b0d2 6a3d 80f2 093e
000003d0: 11cb b33d e311 fbbd 19a9 f43d 5308 b13d
000003e0: 49de 603d 614f 083e f15f e43d b254 6d3c
000003f0: 7bf4 463c 2ad7 673d 848a 12be 9b1e 983d
-0.089795165 0.090675764 -0.056609027 0.2803416 0.018641809 0.1318502 -0.10828426 0.024643589
-0.15319008 -0.12851812 -0.12188034 -0.15994497 0.22364368 0.16099024 -0.23922427 0.11077763
-0.12784405 0.16117282 0.17460991 0.19595897 -0.032982524 0.16548443 0.16198374 -0.21444693
0.12912726 0.2058634 0.24920738 0.020177482 -0.20950772 0.15362203 -0.21991521 -0.106790535
0.08933309 -0.08838871 -0.2187935 0.08341565 -0.11607942 0.10922541 -0.23353593 -0.14661556
0.10143871 0.022263033 -0.10734997 0.020363206 -0.049556848 0.23629767 -0.05785531 -0.10009478
-0.012260114 0.12805678 0.1433684 -0.24957688 -0.10053817 0.11583838 -0.15939993 -0.24805687
-0.15569942 -0.22063799 -0.10743675 -0.058642805 0.15788057 -0.13711934 0.22345568 -0.15189525
0.10317963 -0.08448822 0.17778042 -0.111231804 -0.124143794 -0.12610388 0.09198124 -0.15963586
0.15232092 -0.03401827 0.10603371 0.098189 -0.09850581 -0.06587344 0.10263209 -0.19654118
-0.057251427 -0.10771609 -0.12339327 -0.19037238 -0.03389288 -0.018721448 -0.16715239 0.09426049
-0.2080158 -0.19790332 -0.11068689 -0.15279673 0.11222954 -0.09846565 0.087050326 -0.121625714
-0.101123795 0.073923536 0.173002 -0.11791555 0.0051459135 -0.18191953 0.16078468 0.18714586
-0.25438944 -0.1694509 0.091338314 -0.07964913 0.080445506 -0.13482939 -0.009038359 0.123423904
-0.026674846 -0.12594661 -0.03246729 0.11356105 0.14656122 -0.14355469 0.035451 0.08433334
0.05567906 0.087877594 0.084968604 0.048330836 -0.06346421 0.11629291 -0.12773722 0.06321801
0.006807538 -0.07660077 -9.705585e-33 -0.05540606 1.6312448e-30 0.037772514 -1.0552198e-32 1.1174214e-32
1.0513766e-32 0.02997695 9.909438e-33 0.025881872 9.978685e-33 0.08880067 1.0016142e-32 0.00023502107
-0.059732232 0.09939749 -1.0113585e-32 -0.014250027 1.4115845e-20 -1.02969896e-32 -0.07302053 0.016449938
-9.835355e-33 -0.007952297 1.2883707e-09 -0.095399246 0.039197173 -1.014938e-32 0.031158272 -1.00226785e-32
-0.07075774 0.049635462 -1.0393462e-32 -9.935455e-33 9.772951e-33 0.04114598 0.012033959 -9.835056e-33
-1.0464392e-32 -0.011473841 -0.0055761826 0.04355998 -7.861666e-27 -0.030152619 -0.0035164675 0.04812747
0.053122185 -1.0297041e-16 -2.4581095e-29 0.0006510049 3.886069e-28 -0.052251514 0.007649225 -2.0946193e-11
1.0368655e-32 0.042902995 0.022906179 2.7824389e-15 -3.3742762e-22 0.010130055 0.07312425 -1.018501e-32
0.02270519 -0.12883238 0.07378709 -0.15598379 0.008902683 -0.074414 0.03171409 -0.1824062
0.11753379 -0.0148472665 0.13367972 0.021870371 -0.10635186 -0.05269864 0.16817631 -0.16954206
-0.08780416 -0.13415584 -0.054986514 -0.08412734 -0.032930367 -0.07859653 -0.18180515 0.13419203
-0.09702352 -0.18570617 -0.05172749 0.014123443 0.12166426 -0.18733226 0.0032729858 -0.056112487
-0.06989262 0.04906751 0.10663202 -0.19422211 -0.035590556 -0.070723355 0.10010257 0.21596286
-0.23745964 -0.09814039 0.0807887 0.06148228 0.04269063 -0.14397155 -0.049215853 0.056727383
-0.0032969506 -0.009283328 0.057329834 0.13471413 0.08778966 -0.12259271 0.11946315 0.08644166
0.054899488 0.1331153 0.11151112 0.014485525 0.01214325 0.05660168 -0.14310652 0.074277125

classifier.0.bias f4 [64]
00000000: fc42 83bd 47b5 283e e39a b7bc d7e7 0d3e
00000010: ba55 05bd 834f 083d 4058 b43d 347a 393e
00000020: e907 78bd 4069 8ebb ef3e 583c 6592 98bc
00000030: 558a fdbc fc37 14be c353 8f3d 8731 96bd
00000040: e368 ad3d df43 a5bd 6a61 c03d 8675 aabb
00000050: eab7 c1bd 6ea2 c2bc 685e fe3b eb84 9f3c
00000060: f8c7 b43d f7f4 3c3e 6dd5 783e d89a 8b3e
00000070: 3b98 5dbd 9aee 3e3e 850a d1bc 0f6e 5d3e
00000080: 6663 3c3e 5b2f 173d 0913 84bb 7698 2a3e
00000090: 135e 5d3e 6eba 553c eac0 7c3e 1dac 333e
000000a0: 3771 08be aedc d43d ca8b 76ae 02e5 3d3e
000000b0: 9e67 acbc 33a0 2bbe 0437 003e 34a1 f7bd
000000c0: 72e5 8d3e ded4 afbb b288 c2bd c65f 223e
000000d0: 07ba ad3d bcf6 393d ca99 283e 57de 373e
000000e0: ee4f 0dbe 66c1 383d d1ca 893e 2b11 2a3e
000000f0: d304 533e 446a 2c3e 3fd7 aebd 6cc8 5c3e
-0.06409261 0.16475402 -0.022412723 0.13857971 -0.03255246 0.033278953 0.08805895 0.18113023
-0.06055442 -0.004346043 0.013198598 -0.018624494 -0.03094975 -0.14474481 0.06998398 -0.07333665
0.08467271 -0.08069586 0.0939358 -0.005201998 -0.09458907 -0.023759093 0.007762719 0.01947256
0.088272035 0.18452822 0.24300165 0.27266574 -0.054100256 0.18645707 -0.025517711 0.21624015
0.18397292 0.036910396 -0.0040305895 0.16659722 0.21617918 0.013044937 0.24682966 0.17546125
-0.13324438 0.10393654 -5.6058082e-11 0.18544391 -0.021045502 -0.1676033 0.12520987 -0.12091294
0.27714115 -0.005365952 -0.09498729 0.15856847 0.084827475 0.04540132 0.16464916 0.1795591
-0.13800022 0.045106314 0.2691255 0.16608112 0.20607309 0.16837412 -0.08537149 0.2156083

classifier.3.weight f4 [1, 64]
00000000: 1767 b93e 9812 c0bd 5975 6cbb d25f dbbd
00000010: e0c2 093c a4b8 873e caea f8bd 7c82 b8bd
00000020: d45c 823e edf4 1abd 6d62 8b3e b516 b93d
00000030: 0dad d23e cab5 4f3d b794 0cbe 8b80 0d3d
00000040: c899 983e d6b2 c33d 92e5 243e d4c9 5a3d
00000050: c009 473e 4e33 76bc e171 5d3e f28b 143e
00000060: 81fc d7bd 7732 c2bd 44a7 14be 7660 d9bd
00000070: 43cf ab3e 91f0 c8bd 4f32 3c3e 26d2 f7bd
00000080: 02a1 26be 2ad2 4c3e 2130 8a3a 7620 dabd
00000090: 6a0c e7bd 8bb9 bd3e 1cd8 d2bd 349f 58be
000000a0: 8596 543d 9b69 31be 9337 14ba df6f c9bd
000000b0: f854 b13d 5c0e aa3d 9037 00be d6b1 973d
000000c0: 5d0f cfbd a01a 753e b074 a63e a92d c8bd
000000d0: 44ce f4bd 8df8 00be 9b1b 04be 7eec d8bd
000000e0: eaf9 a23e 478f cd3e b822 bbbd 0aa7 11be
000000f0: 05e8 e3bd 21e4 1abe add3 bd3d 9d2c 18be
0.36211464 -0.093785465 -0.0036080687 -0.10711636 0.008408278 0.26508057 -0.121541575 -0.09009263
0.25461447 -0.037831236 0.2722353 0.09037534 0.41147652 0.050710477 -0.13728605 0.034546416
0.29804826 0.095555946 0.16103199 0.053415135 0.19437313 -0.01502688 0.21625473 0.1450651
-0.10546208 -0.09482282 -0.14516932 -0.106141016 0.33556566 -0.098115094 0.18378566 -0.121006295
-0.16272357 0.20002046 0.0010542908 -0.10650723 -0.11281665 0.3705562 -0.10295126 -0.21154481
0.05190136 -0.17325442 -0.0005654033 -0.09835791 0.08658785 0.0830352 -0.12521195 0.074069664
-0.10110352 0.23935938 0.325109 -0.09774334 -0.119534045 -0.12594815 -0.12901156 -0.10591982
0.31831294 0.40148374 -0.091374815 -0.14223877 -0.111282386 -0.15126087 0.092688896 -0.14860769
