best_gcn_model.pth (torch, 304170 bytes, 13 tensors)

node_embedding.weight f4 [64, 770]
000000 9e 45 11 bd db 67 06 be 63 c8 af 3d db 35 88 be
       -0.035466783 -0.13125555 0.085831426 -0.26603588
000010 32 2e 26 3d 26 1e 60 bd 02 a3 54 3e bb 08 05 3d
       0.0405714 -0.05471625 0.20765308 0.03247903
000020 ff 35 33 3e 81 45 25 3e c2 77 49 bd d2 c0 30 3d
       0.17501067 0.16139795 -0.049186476 0.043152638
000030 43 0b c9 bd 08 42 1d 3c 8b 6a 95 3d 5a bc c0 3d
       -0.09816601 0.009598263 0.07295712 0.09410925
000040 4c 78 a5 3d d4 27 e6 bc 49 76 c3 3d 11 f4 73 bd
       0.080795854 -0.028095163 0.095440455 -0.05955893
000050 97 e9 6f 3d e3 1b 22 bb 98 3c 71 bd 84 30 8c bb
       0.058572378 -0.002473586 -0.058895677 -0.0042782445
000060 17 50 7c bd ef 30 d9 bc 4b 8f 89 3e 78 11 c9 3c
       -0.061599817 -0.026512591 0.26867136 0.024544463
000070 90 07 34 be 5f 4c a8 3d 82 dd 36 be 63 75 81 bc
       -0.1758101 0.08217692 -0.17857936 -0.015803045
000080 9d 4a 60 3d 53 58 4d be e4 49 7b bb 88 66 ad bd
       0.054758657 -0.20053224 -0.0038343603 -0.08466822
000090 4a 27 00 3d 60 50 e4 bb d8 e9 82 bd bc 75 04 bd
       0.03128747 -0.0069675893 -0.063922584 -0.032338843
0000a0 7d 88 31 be 5c 88 14 3e 23 fd 4d bd 93 ef 65 3e
       -0.17337222 0.14505142 -0.050290238 0.22454672
0000b0 d3 50 be 3c 09 f3 84 bd fa 04 49 3d 59 7d 86 3d
       0.0232319 -0.06491668 0.04907701 0.06566877
0000c0 94 45 81 3e 99 8c 83 3e a6 ea a6 3d 27 6e 57 bd
       0.25248396 0.25693205 0.081502244 -0.052595284
0000d0 6f 94 7e 3c a6 26 84 3c 2c 5e 69 3e bf bc 94 3c
       0.015538319 0.01613171 0.2278983 0.018156407
0000e0 69 d2 16 be 5b e1 e7 bd ae 29 63 3e cc 22 8c 3d
       -0.14728703 -0.1132228 0.22183868 0.068425745
0000f0 fd 5b 4d be c6 d6 24 3e 37 bd 4a 3e 91 0e 91 bd
       -0.20054622 0.16097555 0.19798742 -0.070828564
000100 b6 b4 ba bd b5 29 b0 3e e7 9c c2 bb a1 47 27 be
       -0.09116499 0.3440682 -0.0059391144 -0.16335918
000110 b7 a2 c6 bd 51 97 a8 3d 3d 3a 15 be cd 9f 62 bd
       -0.09699004 0.08231986 -0.14572997 -0.05532818
000120 04 3b 27 3d d5 4e ef bd 5d ca 7e 3c 0b 9b 85 3d
       0.040827766 -0.11684958 0.015551177 0.06523713
000130 07 14 52 bd 9b 13 03 bd 94 00 86 bc 39 38 81 3c
       -0.05128863 -0.03200112 -0.016357698 0.01577388
000140 9d 45 26 be e9 52 15 be aa 88 f2 bc 2a 07 a8 3d
       -0.16237493 -0.14582409 -0.029606182 0.082044914
000150 60 f8 a5 bd 94 ba 66 be b2 08 50 3e 54 63 86 bd
       -0.081040144 -0.22532111 0.20315817 -0.06561914
000160 14 4b 33 3e c8 34 25 be c1 13 17 3d 80 8a 8d 3e
       0.17509109 -0.16133416 0.036884073 0.2764473
000170 b2 0b aa bc 8d 79 06 3e ee b8 c8 bd d4 8c 06 3e
       -0.02075753 0.13132305 -0.098008975 0.13139659
000180 c3 e9 cf bd f0 70 1e 3e 41 28 0a bd 4a c0 92 bc
       -0.101520084 0.1547277 -0.033729795 -0.017913956
000190 83 11 09 3e ab d7 b6 3e c5 40 6f 3e 3d 88 f2 bc
       0.13385586 0.35711417 0.23364551 -0.02960598
0001a0 e7 f8 e3 bd 3d 91 4b bd 33 9c 9d bc 32 b8 7e bd
       -0.11131459 -0.049699057 -0.01923952 -0.06218738
0001b0 eb 16 29 3e ed df 4a bc 21 fe 76 bb 55 53 b2 bd
       0.16512649 -0.01238249 -0.0037688094 -0.087073006
0001c0 7d 52 87 3e a8 f6 1b 3e 34 91 1d bc 51 ea 35 bc
       0.2643012 0.1523081 -0.009617139 -0.011103229
0001d0 42 2d 54 bd 83 87 60 3e 6c 86 2c be 87 b1 8b 3c
       -0.051800974 0.21926694 -0.16848153 0.017052425
0001e0 94 8a 9c 3d bc 7f 1f 3e ef 67 03 3d 14 5b 3b 3d
       0.07643619 0.1557607 0.03208154 0.045741156
0001f0 52 de 08 3e c0 f8 4b 3d b8 fa 32 be 8e 06 db 8e
       0.13366058 0.049797773 -0.17478454 -5.399398e-30
000200 16 45 d8 3d 12 f7 91 3d fe fb c1 3d 2e 50 24 3d
       0.10560052 0.07127203 0.09471892 0.040115528
000210 cf 4d 60 3d 04 70 c7 bd 7d 2c 52 be 79 a3 27 3d
       0.054761704 -0.09738162 -0.20524783 0.040927384
000220 4a 02 17 bd 48 35 b9 bd de e8 88 bc f8 7a b1 ba
       -0.036867417 -0.09043366 -0.016712602 -0.0013540676
000230 fd ef c0 3d c5 c3 82 bd 78 12 cd bd 69 fc 81 3d
       0.09420774 -0.06384996 -0.10013288 0.063469715
000240 8a 39 c6 bd 28 ec 3d be cf 42 b8 3e cd 94 20 3e
       -0.096789435 -0.18547118 0.3598847 0.15681763
000250 a6 70 3b 3d c7 7d 21 be 6d a7 9e be d1 6b 92 3c
       0.045761727 -0.15770636 -0.3098711 0.017873676
000260 ab f4 a3 bd f9 0e 8a 3e 48 ec d5 3c eb 25 f7 bb
       -0.08005651 0.26964548 0.026113644 -0.007542362
000270 69 f3 ec 3d 73 7f a8 3d dd e7 88 3d 39 db 62 be
       0.11569864 0.08227434 0.066848494 -0.2215394
000280 af 54 24 bd a5 d8 bc 3d 03 90 dd bd 38 79 ea bd
       -0.040119823 0.09221009 -0.10818484 -0.11448902
000290 c9 2b 95 3d 6e 9f 86 bd ee 21 01 be 1c 39 d6 3a
       0.07283742 -0.065733775 -0.126106 0.0016343924
0002a0 1a f9 6c 3a c6 53 75 be a1 c8 1d be 75 14 6d bd
       0.00090398046 -0.23957738 -0.15408565 -0.057880837
0002b0 4a 1c 5f 3d a4 2a 07 bd 34 a6 02 3e dc c8 ad be
       0.054470338 -0.03299965 0.12758714 -0.33942306
0002c0 58 9d ce 3d fe 24 1e 3e 14 7c d5 bc 56 4e 83 be
       0.10088605 0.15443799 -0.026060142 -0.25645703
0002d0 ee 98 48 3e 3a 8b f5 3d 5a 68 ee bd a4 0a c5 3d
       0.19589588 0.11989446 -0.11640997 0.0962117
0002e0 f4 88 06 be 1e c7 67 bd 81 c5 38 3d 35 d5 51 be
       -0.13138181 -0.056586377 0.04511023 -0.20491488
0002f0 78 f8 87 bd c4 52 40 bd 4f e2 2c 3e 84 38 83 3e
       -0.066391885 -0.04695393 0.16883205 0.25629056
000300 b5 f9 37 be a0 76 65 bd 17 92 1e be fc ca fd bd
       -0.1796635 -0.056021333 -0.15485416 -0.12392232
000310 d0 1d c1 3d 4d 6c 27 3e 46 ee 85 3d 08 00 84 be
       0.094295144 0.16349907 0.06539588 -0.25781274
000320 22 52 ef bc 47 24 af bd 23 f9 cf bd cc 43 0b 3e
       -0.029213969 -0.08551841 -0.10154941 0.13600081
000330 a5 c0 ab bd 3a a6 10 be 22 2f 20 be e6 5d 0f bd
       -0.083863534 -0.1412591 -0.1564298 -0.035001658
000340 67 e3 7b bd 5b 07 12 3d b8 ef a2 3d e5 29 2a be
       -0.061496165 0.035651546 0.07955879 -0.16617544
000350 bd f6 46 3e df 02 85 bd 0f e3 7c bd e5 45 20 bd
       0.1943006 -0.06494688 -0.061739977 -0.039129157
000360 bd 42 6a be b8 88 72 bd 1e f9 98 3d 1b 73 9a 3d
       -0.22877021 -0.059212416 0.0746939 0.07541486
000370 ee 75 18 be 25 28 99 3d 74 36 d4 bc cc 81 37 0e
       -0.14888737 0.0747836 -0.025904872 2.2618986e-30
000380 2d 93 02 be ae 5a c7 bd f1 0c 8d bb 5a c0 39 be
       -0.12751456 -0.09734093 -0.0043045213 -0.18139783
000390 57 a7 0a be 7f 54 5e bc 5e 58 df 3c 28 2d 8b 3d
       -0.13540398 -0.01356995 0.027263816 0.06795722
0003a0 46 dd 24 3e f0 22 1f bd 1e 43 8f bc a3 a5 e5 bd
       0.16100034 -0.03885168 -0.017488059 -0.11213233
0003b0 ee 6c 0c be 45 9f 19 be fd b8 26 3e d8 8b ab 3b
       -0.13713428 -0.15002163 0.16281505 0.0052351765
0003c0 6c 5b 55 3c 49 91 e7 3d 41 87 e7 bd 6b f2 63 bc
       0.013022285 0.11307008 -0.113050945 -0.013912777
0003d0 01 b6 f9 bc f6 1a c4 3d 26 53 07 3d 07 0d 4c bc
       -0.030482294 0.09575455 0.03303828 -0.012454278
0003e0 04 ac f3 3d f4 ab 01 3e 18 ec 10 3e 40 ca 03 3e
       0.11898044 0.12663251 0.14152563 0.12870121
0003f0 ca db 67 be d9 e0 74 3d 4b 85 2b 3d 3a 14 68 bd
       -0.22642437 0.059784744 0.041875165 -0.056659915

node_embedding.bias f4 [64]
000000 e3 44 6b 3d 53 9e 73 bd bd 0f 2c bc 18 b2 25 bd
       0.057438742 -0.05947716 -0.010501799 -0.040453047
000010 78 d3 9a bd a0 1d 09 bd ad 7d 9f 3d 01 62 b3 bd
       -0.07559866 -0.03347552 0.07787643 -0.08758927
000020 fb 41 e2 3c 14 e5 7d bc 1e 37 73 3d f8 23 75 3d
       0.027619353 -0.015496511 0.059378736 0.059848756
000030 4b e6 95 bd be 91 f9 bc dd dd ae 3d 18 a1 cd 3b
       -0.073193155 -0.030465003 0.08538411 0.0062753074
000040 d0 80 7c 3d c0 1a f4 3c cd 76 82 bd b5 3c 0e 3d
       0.061646283 0.029797912 -0.06370316 0.034725863
000050 f1 1a be bd 62 d0 90 3a aa 78 1b bd 9c 8a b9 3d
       -0.092824824 0.0011048431 -0.03795687 0.09059641
000060 83 9a 68 bd 64 12 a8 3d b3 fb c9 bc 58 12 d4 bd
       -0.05678798 0.08206633 -0.024656152 -0.10355061
000070 6f 4c cf 3d 2b 00 3e bc fa 00 aa bd a1 00 16 3d
       0.101220004 -0.01159672 -0.083009675 0.036621694
000080 30 7c d6 bd 3c 7a 1a 3d cd 79 26 bd 6d 1a 00 bb
       -0.10472906 0.037714228 -0.040643502 -0.0019547
000090 a4 93 8b 3d f5 5f ff bc 1e ce 65 3b d1 08 47 bd
       0.068152696 -0.031173686 0.0035065482 -0.048592392
0000a0 e0 95 49 bc e6 eb c8 3b 14 98 87 3d 17 89 a6 3c
       -0.012303799 0.006131637 0.066208035 0.020329041
0000b0 64 29 c6 bc 4e de 70 3d 76 24 7a bd bf 03 41 3d
       -0.024189658 0.058805756 -0.061069928 0.047122713
0000c0 83 c9 a3 bc 38 67 71 bb 8f 2e 89 bc 64 71 c2 3c
       -0.01999355 -0.0036835205 -0.016745834 0.02373571
0000d0 e0 35 ab 3d 6b 95 96 3d c1 56 8e 3c 71 2f 89 bd
       0.08359885 0.07352718 0.017375352 -0.06698502
0000e0 68 ac 0a bd c4 6f fb 3c ed d9 60 3d f3 be 52 3d
       -0.033855826 0.030692942 0.05489533 0.051451635
0000f0 88 28 1a 3d 62 ae 87 bd 5f 25 4f 3d b3 22 08 3d
       0.03763631 -0.06625058 0.05057275 0.033236217

gcn.convs.0.bias f4 [64]
000000 52 99 37 be ab 84 ef bd 9b ca 26 be 69 45 cc bd
       -0.17929581 -0.11695226 -0.16288225 -0.099741764
000010 80 ef 69 be 9c 16 4b be 90 e0 36 be bd d2 70 be
       -0.22845268 -0.19832844 -0.17859101 -0.2351789
000020 35 d2 2c be be 25 a6 bd cc 4f 29 be 60 52 0f be
       -0.16877063 -0.081126675 -0.16534346 -0.13996267
000030 77 ae 0a be 3e 1c fa bd 44 04 36 be ba 98 07 be
       -0.13543116 -0.12212418 -0.17775065 -0.13241854
000040 d4 07 be bd ad 73 0b be b1 cf 09 be a6 c7 38 be
       -0.09278837 -0.13618346 -0.13458134 -0.1804491
000050 4f f0 71 be 94 4f 3f be a1 be 10 be a3 fd fd bd
       -0.23626827 -0.186827 -0.14135219 -0.12401893
000060 43 09 41 be d0 4c 1a be 5c d9 f6 bd 47 fc 41 be
       -0.1885119 -0.15068364 -0.12053177 -0.18943892
000070 c5 62 10 be 00 e3 1b be 05 76 37 be c5 51 0c be
       -0.14100178 -0.15223312 -0.17916115 -0.13703068
000080 56 95 46 be 79 88 4b be 08 e7 d9 bd 1e ce 3c be
       -0.19392905 -0.19876279 -0.10639769 -0.18438002
000090 50 87 13 be f3 d8 8a be ca fe 64 be db 7f 1b be
       -0.14407086 -0.27118644 -0.2236282 -0.15185492
0000a0 9c 54 7f bd a8 c6 2a be 63 80 84 be 1e 3d 1c be
       -0.06233655 -0.16677344 -0.258792 -0.1525769
0000b0 eb 44 55 be e8 27 1c be 80 64 02 be d0 00 f5 bd
       -0.20827071 -0.15249598 -0.1273365 -0.119630456
0000c0 fe ff 34 be d0 46 22 bd 0f 20 24 be 97 e0 24 bd
       -0.17675778 -0.039618313 -0.16027854 -0.040253248
0000d0 04 e3 c4 bd db ce 0a be d9 b1 53 be c4 35 85 bd
       -0.09613612 -0.13555472 -0.20673312 -0.065043956
0000e0 36 3a 3c be 89 ea 5d be 1a 61 56 be 57 be 4e be
       -0.1838158 -0.216715 -0.20935479 -0.20189796
0000f0 ac 98 fe bd 02 f2 46 be c9 7f 80 bd f6 98 2a be
       -0.124314636 -0.19428256 -0.06274373 -0.16659912

gcn.convs.0.lin.weight f4 [64, 64]
000000 1c 1d cd 3d 93 ba 15 3e 58 f4 2b be 95 1d 05 3e
       0.10015318 0.14621954 -0.16792428 0.12999566
000010 f7 ed ba 3e ce 5e 88 3d 34 15 b9 3d 7a d3 73 bd
       0.36509678 0.066587076 0.09037247 -0.05952785
000020 50 ab c1 3e e9 5f 8b be b3 1a 0b bc c8 77 59 3e
       0.37826014 -0.2722161 -0.008490252 0.21237099
000030 9d c6 35 be a9 33 94 3c bb d1 1a bb 8f 04 07 bf
       -0.17751546 0.01809104 -0.0023623544 -0.5274133
000040 e4 e7 00 be 58 24 80 be 9b 68 f1 3c 39 47 3a 3e
       -0.12588459 -0.25027728 0.029468825 0.18191232
000050 fc 44 9b 3e 62 93 27 3d 67 56 a7 3e 26 73 c6 bd
       0.30326068 0.04091204 0.32683107 -0.096899316
000060 e5 bf 48 3e 68 93 51 3e ea d9 00 3d dc 22 87 be
       0.19604452 0.20466387 0.03145782 -0.26393783
000070 b9 cb b6 3d 8d 9b 46 3d 77 76 07 3e e2 7d a5 3d
       0.08925576 0.04848819 0.13228785 0.08080651
000080 db 4c ea bd 9c e1 9f bd 15 34 10 3e 75 a5 9d be
       -0.1144044 -0.078067034 0.14082368 -0.30790296
000090 62 c7 50 be 25 04 ac bd 92 d5 34 3e c1 7b d7 3e
       -0.20388559 -0.08399228 0.17659596 0.42086604
0000a0 85 c7 be 3e 13 30 0c 3d 9b cd 81 be eb c9 14 3e
       0.37261596 0.034225535 -0.25352177 0.1453015
0000b0 88 59 0b 3c ba c1 97 be 31 ae 2d be ab 43 c9 bc
       0.008505233 -0.2963999 -0.1696098 -0.0245684
0000c0 2d 53 fe bc dc da a2 3e 58 62 7e 3b f8 31 1c bd
       -0.03104552 0.318076 0.0038815942 -0.03813359
0000d0 b0 33 9d be bf d7 1e 3e 3d 8d 3b be 32 87 d6 bc
       -0.30703497 0.15511988 -0.18315597 -0.026187513
0000e0 72 eb a3 3e 00 4c 18 bd 5b d5 56 be 6e 91 3e 3d
       0.32015568 -0.037181854 -0.20979826 0.04652541
0000f0 dd 88 8a be 91 dd b0 be 26 ee ae 3e a8 12 cc 3c
       -0.27057543 -0.34544042 0.34166068 0.02491124
000100 93 2a 4a bc ee 53 31 3e 07 0f 39 be 76 55 8b be
       -0.012339252 0.17317173 -0.18072139 -0.2721364
000110 17 0b f8 3d 04 d2 37 3e bb 2a 22 be b4 37 23 be
       0.1211149 0.17951208 -0.15836613 -0.15939218
000120 3b ff 2b be 38 81 22 be 9a 64 ab 3d 02 2e 91 bd
       -0.16796581 -0.15869606 0.083687976 -0.070888534
000130 97 d5 8c 3e 9b 39 da 3c 0e 30 60 be ff 42 99 be
       0.27506706 0.026638797 -0.21893331 -0.29933926
000140 8a f6 99 3b 12 c0 01 3e 01 a3 fd 3e 37 f4 88 be
       0.004698579 0.12670925 0.49538425 -0.2674882
000150 e4 99 4d 3d a2 fa a0 3e 65 cd 2f bd 1d 4e 93 bc
       0.05019559 0.31441218 -0.04292049 -0.017981583
000160 26 cf 8b bd f2 0b 12 bd 72 c6 ea bd e3 83 95 3e
       -0.0682662 -0.035655923 -0.11463632 0.29202184
000170 4e e6 88 be 7a 4d a0 bd da a4 53 3e db a4 c1 bd
       -0.2673821 -0.078272775 0.20668355 -0.09455272
000180 20 b5 2e 3e 7b fa a3 be 93 60 bf 3d 34 cb c6 3d
       0.17061281 -0.3202704 0.09344592 0.09706727
000190 fb 56 df bd 28 f7 19 bc 2d 24 4e 3e 24 e9 be bb
       -0.10905262 -0.009397306 0.20130987 -0.0058261324
0001a0 79 33 37 3e cc 78 be 3d 6a 07 15 3e ff b1 ed bc
       0.17890729 0.09300384 0.1455361 -0.02901554
0001b0 9f 0d 08 3e f9 e3 c7 3e b3 6d 1f 3e 54 97 df bd
       0.13286446 0.39041117 0.1556919 -0.109175354
0001c0 a2 75 ca 3d 31 6f 1c be 4f de 5b 3d 5b 55 1b 3e
       0.09885718 -0.15276791 0.053678807 0.1516928
0001d0 d9 c1 ec bd b9 a7 34 3d da 26 07 be de 35 af bd
       -0.11560411 0.044105265 -0.13198414 -0.08555196
0001e0 73 5a 97 3d 42 92 8b 3d 8f 77 0e be 2b 9e 1f 3e
       0.07390299 0.06815006 -0.13912795 0.1558768
0001f0 24 13 4c be 16 75 36 be a8 fb 50 3e cd 7a 6d be
       -0.19929177 -0.17818102 0.20408499 -0.23191376
000200 ee f9 a4 be 4a 5c d1 3d 9c bc f2 bd dd 83 0e 3e
       -0.3222193 0.10222681 -0.11852381 0.1391749
000210 7e 2f c9 bd 7d 60 ce 3d 54 5e a1 bc b6 e6 0e 3e
       -0.098235115 0.100769974 -0.0196983 0.13955197
000220 08 16 bd be 48 9d df 3e 81 6d 3b 3d 22 8c 95 be
       -0.3693087 0.43674684 0.045758728 -0.29208475
000230 18 31 28 3e 6b 34 0e 3e c3 56 0b bc f3 28 4e be
       0.16424978 0.13887183 -0.008504572 -0.20132808
000240 65 10 60 be fc 15 5c 3e 64 cb 6a bd c7 55 d1 be
       -0.21881254 0.21492761 -0.057322875 -0.40885755
000250 ef cc 20 bd 01 0f 85 3d 7f 5f b6 bd 28 01 41 be
       -0.03925794 0.064970024 -0.08904933 -0.18848097
000260 43 9d 47 3d 91 c6 92 be e3 46 54 3e 6d 96 95 3e
       0.04873396 -0.2866712 0.20730166 0.29216328
000270 96 bb 3b bd 53 82 35 3e d4 66 b2 3e 5d cf 57 be
       -0.045833193 0.17725496 0.34844077 -0.21075197
000280 ab 3a dc 3d ad 43 6f 3e 26 6d ff 3e c3 0d 17 be
       0.107533775 0.2336566 0.4988796 -0.14751343
000290 9c ab ac 3d 6c 34 d4 3e a6 e7 e3 b9 61 ed d2 3d
       0.084311694 0.41446245 -0.00043469406 0.10299183
0002a0 b3 c2 93 3d e1 a3 4d 3d 55 99 de 3d 91 22 e1 3d
       0.0721487 0.050205115 0.108690895 0.10992921
0002b0 7e e9 26 be 01 e1 1c be 88 33 f4 bc a3 66 ab be
       -0.16300008 -0.15320207 -0.029809728 -0.33476743
0002c0 57 c6 04 3e 50 34 df 3d 08 f5 80 3e 10 b9 38 bd
       0.12966286 0.1089865 0.25186944 -0.045098364
0002d0 0d d5 c6 be 4d 9a b0 be 5c 65 f3 3c 7d b0 00 be
       -0.3883442 -0.34492722 0.029711418 -0.12567325
0002e0 e4 5d 77 bd 28 1c d5 bc 8f 1b 8e be 64 14 38 be
       -0.060392275 -0.026014403 -0.277554 -0.17976528
0002f0 ec b9 15 3e 5c 42 e4 3e 21 5a 7c 3d ba 87 81 3e
       0.14621705 0.44581878 0.06160939 0.25298864
000300 84 91 b9 be 59 59 04 3e 46 66 2e 3e 4c 24 b8 bd
       -0.36243832 0.12924708 0.17031202 -0.08991298
000310 3a 5c c1 3d 8c ba 03 3e 7f 6d c5 3d f1 7f e5 bc
       0.09441419 0.1286413 0.09640025 -0.028015109
000320 8d f7 bc bd a8 40 92 3a fe 93 06 3d 6c 58 99 bb
       -0.09226904 0.0011158185 0.03285598 -0.00467973
000330 a0 24 12 3d fe a9 57 bd 6e 95 b9 bd e1 fc 49 bd
       0.03567946 -0.05265235 -0.090617046 -0.04931343
000340 61 e8 3c bd 37 af 87 be 2f 3a 1a be b8 78 82 3d
       -0.04612005 -0.26500866 -0.15061258 0.063706815
000350 42 13 ec bd dc 9a f4 3e a8 69 60 3e 36 ca 94 3d
       -0.11527111 0.47774398 0.21915305 0.07265131
000360 fc 8d a0 be 4d 2a 02 bd 24 99 11 3e a5 fc 97 bd
       -0.31358325 -0.031778622 0.14218575 -0.07421235
000370 ba ec 11 be ac 93 cd 3d c8 e0 7d be 81 78 1e be
       -0.1425046 0.10037932 -0.24792778 -0.15475656
000380 f9 17 1e 3e e9 ee 5d be b7 b3 15 bd a3 b1 34 3d
       0.15438832 -0.21673168 -0.036548343 0.04411472
000390 92 fa 68 3e 27 fe c9 3d 35 f7 83 3d 3f 1b 63 3e
       0.22751835 0.09862929 0.064436354 0.22178362
0003a0 82 fd 68 bc a9 49 84 bd 65 c4 08 3c 67 18 a4 3e
       -0.014220597 -0.06459362 0.008347605 0.32049868
0003b0 94 7d 1d be d4 73 3b be 92 c1 2e 3e ad 32 7f bd
       -0.15379936 -0.18305904 0.17066029 -0.062304188
0003c0 a6 8d 44 be 05 9d e1 3d c0 0c 82 3c 3e de cb bd
       -0.1919466 0.11016277 0.01587522 -0.09954499
0003d0 5d ee 73 be 6f 1c 2a 3e d0 bd 1c 3d 7a cf 51 3e
       -0.23821397 0.16612409 0.038266957 0.20489302
0003e0 09 6c 4d be 7f 6a 07 be 29 13 82 be 63 ce 11 3a
       -0.20060743 -0.13224219 -0.25405243 0.0005562065
0003f0 b5 34 2a 3e e0 1e 21 be bf a9 5b be cf 40 99 bd
       0.16621669 -0.15734434 -0.21451472 -0.074830644

gcn.convs.1.bias f4 [64]
000000 f4 01 01 be c2 27 bb bd b6 7e 9b bd 0d f2 17 be
       -0.12598401 -0.091384426 -0.075925276 -0.14838429
000010 51 c5 08 3e 4b fd d9 bd 13 63 93 bd 84 09 a7 3d
       0.1335652 -0.10644015 -0.07196631 0.08156112
000020 c7 d2 7a 3b d3 cf 17 be ef cf fd bd 32 87 e6 3d
       0.0038272606 -0.14825372 -0.12393176 0.11256255
000030 ba b0 08 be 5f 6f fa bc 27 97 c9 3d 5e fb 25 be
       -0.13348666 -0.030570684 0.09843283 -0.1620917
000040 7f ba d0 3c 84 d8 24 be 7f 35 b3 bd c8 f8 dd 3d
       0.025479553 -0.16098219 -0.08750438 0.10838467
000050 19 ec e1 bd ff 5c 24 bb b2 5a fc bd 68 98 2e 3d
       -0.1103136 -0.0025079844 -0.12321986 0.042625815
000060 16 45 6a bd ed a5 fe 3d 3d b8 bf 3d 58 91 ab bc
       -0.05719479 0.124339916 0.093613125 -0.020943329
000070 ce 87 35 be bb 5b 00 be b4 12 b6 bd b2 41 0e be
       -0.17727587 -0.12534992 -0.08890286 -0.13892248
000080 4a 19 b4 bd d7 33 54 bd be 8f 98 be 5e 9d db bd
       -0.08793886 -0.05180725 -0.29797167 -0.10723375
000090 4c 00 57 3b 2c 52 86 3d 86 be de 3d ad f4 c4 bd
       0.0032806573 0.06558642 0.10876183 -0.09616981
0000a0 62 3e ef 3d f8 22 ec 3d 78 3a d6 bd 42 b5 17 be
       0.116818205 0.11530107 -0.10460371 -0.14815238
0000b0 05 30 14 bd c4 d2 0d be 98 cb 35 bd 13 83 b4 bc
       -0.036178607 -0.13849932 -0.044383615 -0.022035157
0000c0 9c fa 7a be 30 f8 cd 3d e5 89 86 be 05 50 33 3e
       -0.24509662 0.10057104 -0.2627708 0.17510994
0000d0 84 78 8f bd 7c 4d 36 bd 0d a4 2c bd 2e 5a e4 bd
       -0.070054084 -0.04450749 -0.04214864 -0.11150013
0000e0 5c 6c c5 bd 11 32 03 be 1e bf 99 bc 06 c4 80 be
       -0.096398085 -0.12812068 -0.01876789 -0.25149554
0000f0 59 8c 26 be 3d e4 03 be 69 3a db 3d 57 36 29 bd
       -0.16264476 -0.12880035 0.107045 -0.04131159

gcn.convs.1.lin.weight f4 [64, 64]
000000 23 a7 c6 bd 31 9c bc bd 39 af 00 bc 71 bb 03 be
       -0.096998475 -0.09209479 -0.007854276 -0.12864472
000010 ee b9 a9 bd 35 86 90 ba 2a e9 b0 bb a0 38 6e bc
       -0.082874164 -0.0011026325 -0.005398889 -0.014539868
000020 ff 0d f3 3d 1f be 4a 3d a6 9f 9e 3d 65 d6 2b bd
       0.11867904 0.04949772 0.07745294 -0.04195251
000030 7d a8 f8 bd 63 22 aa 3b 18 f7 6c bd 98 c1 0e bd
       -0.121415116 0.0051920875 -0.057852834 -0.034852594
000040 49 ef 00 3e 0d 44 02 3e 7c 60 14 bc 1a 82 33 bd
       0.1259128 0.12721272 -0.009056207 -0.043825246
000050 53 f1 da 3d fc b0 1f bd be ff 92 3d 60 64 59 3d
       0.1069056 -0.038987145 0.07177685 0.05307424
000060 01 c7 0f 3e ce 48 45 3b 76 6f b9 3d d3 fe dd 3d
       0.14040758 0.003010321 0.090544626 0.108396195
000070 12 b1 75 3d db 49 13 bd ae 2f 17 bc d4 8b 3c 3e
       0.05998332 -0.035959106 -0.009227676 0.18412715
000080 73 11 87 bd 3a e7 db bc 25 8b d7 bd 8e f4 95 bd
       -0.06595125 -0.026843656 -0.105245866 -0.07322036
000090 50 74 0e be fa 4e 9a 3d a6 f8 5c 3d 30 97 06 bc
       -0.13911557 0.07534595 0.053948067 -0.008214757
0000a0 a3 3a a5 bc d6 86 6a 3c f7 1d 76 bc 44 ff 9e bd
       -0.020169562 0.014314374 -0.015021793 -0.07763532
0000b0 54 cb 9f bc 0c 67 91 bc 00 ab a4 bd 47 0a a1 bd
       -0.019506134 -0.017749332 -0.08040428 -0.078632884
0000c0 6c 87 15 3e 32 5f 88 bc a5 27 9f bd 66 15 7b bd
       0.1460244 -0.016646955 -0.077712335 -0.061299704
0000d0 cc 7e 05 3d 1d d4 24 3e c7 43 82 bd 31 0e 51 3a
       0.032591626 0.1609654 -0.06360584 0.0007974832
0000e0 01 98 0a be bd 7c 95 3d 50 ad d7 bd bd fe 0e bd
       -0.13534547 0.072991826 -0.105311036 -0.034910906
0000f0 b0 db c4 3d 67 8b 37 3d d8 fe 52 bd 0e 1e 22 bd
       0.096122146 0.04481068 -0.05151257 -0.039579444
000100 16 85 38 3e d3 0f 6f 3e 2d 81 a9 3d cf c3 b2 3b
       0.18019518 0.2334588 0.082765914 0.005455471
000110 cc 19 cf 3d 28 6f 9d 3d 87 38 e0 3d 01 dc f0 3d
       0.10112342 0.07687217 0.10948282 0.117607124
000120 5e 8d bf bd d6 7e 6b 3e 2a 2b db bd e4 fe 3a bd
       -0.093531355 0.22997603 -0.10701592 -0.04565324
000130 fb 60 95 3c ab 69 72 3e 56 4b d8 3c 92 d9 2e bd
       0.01823472 0.23673122 0.02640311 -0.04268796
000140 36 3d 6a 3d 3a 91 af bd e4 c6 98 3e 9c 0d 81 3c
       0.05718728 -0.08572622 0.29839242 0.01575356
000150 1d 3b e7 3c 84 05 64 3c 03 45 9d bd 7e cf 82 3d
       0.02822643 0.013917331 -0.076791786 0.06387232
000160 96 37 3a 3d b9 16 ba 3d 02 77 e6 3d 78 90 dd 3d
       0.045463167 0.09086365 0.11253168 0.10818571
000170 d2 57 40 be f9 97 c6 bd da b8 c7 3d e8 77 a9 ba
       -0.18783501 -0.09696955 0.097520545 -0.0012929412
000180 b4 45 c0 3d df f4 a1 3d a8 f0 98 bb f0 1f 9a bc
       0.09388295 0.079080336 -0.0046673603 -0.018814057
000190 87 ed 72 3d a4 fc d5 3c 06 da 2d 3c 8b 47 93 bd
       0.059308555 0.026121445 0.010611063 -0.0719138
0001a0 f0 a5 21 3e c1 d7 12 3d cc 0e 83 3e 44 20 a1 bd
       0.15785956 0.03585029 0.25597227 -0.07867482
0001b0 b6 5e 5e 3d db 8a 91 3d ba 11 ce 3a 06 7a 6f 3e
       0.054289542 0.07106563 0.0015721836 0.23386392
0001c0 e3 c0 55 3d d6 05 31 3e 63 79 26 be b5 f4 23 3e
       0.052185904 0.17287382 -0.16257243 0.16011317
0001d0 7a 5c ec 3d b0 50 ac 3b 70 02 a7 bd cf 0d 86 be
       0.11541076 0.005258642 -0.08154762 -0.2618241
0001e0 8e 15 7e bc 07 71 4d bd 29 b5 88 bd ce bd 75 3e
       -0.015508069 -0.05015662 -0.066751786 0.23998186
0001f0 25 b8 2c 3d e4 c4 58 3d e7 19 3a 3d f3 3c 2a 3d
       0.0421678 0.052922145 0.04543486 0.041562032
000200 f6 f5 96 3e 54 fa fd be 25 72 1b 3d d6 31 94 be
       0.29484528 -0.49605048 0.037950654 -0.28944272
000210 19 07 8c 3e 34 38 71 bd 62 81 dd 3d a5 b6 58 3e
       0.27349165 -0.05889149 0.108156934 0.21163423
000220 55 bc e7 3d 54 26 6f be 4d 91 0c bf bc 27 a7 3e
       0.11315218 -0.23354465 -0.5490921 0.32647502
000230 44 73 da 3d 9d 51 2b bd 88 da 50 3e f4 2c 25 3e
       0.106665164 -0.04182588 0.20395863 0.1613043
000240 88 a6 d1 3d e3 de a2 3d 3b 4e 6e be c0 a5 8a 3e
       0.102368414 0.079526685 -0.2327203 0.27079582
000250 1e ba 76 3e 2c 8e 2b 3e a6 88 13 3e c6 db c6 3e
       0.24094436 0.16753453 0.14407596 0.3883955
000260 71 82 e4 bd 42 55 be be f8 99 a2 be 58 e7 e0 be
       -0.11157692 -0.37174422 -0.31758094 -0.439265
000270 7b 90 7e be 66 e8 75 be c5 b8 93 be e4 68 83 be
       -0.24859802 -0.24014434 -0.28851905 -0.25665963
000280 90 5f f2 3d 3d 3b 2d be 07 26 61 be ac d8 c1 3e
       0.11834633 -0.16917129 -0.21987163 0.3786062
000290 6e 95 65 bd 3f 74 23 3d 94 0a a3 3d 39 be bf 3e
       -0.05605071 0.039905783 0.07961002 0.37449816
0002a0 a4 8b 05 3d 9f e9 15 3e 41 d4 0c 3c 93 0e a4 be
       0.032603875 0.146399 0.008595527 -0.3204237
0002b0 84 a3 66 bb 11 a1 c0 be 21 f1 04 3e 13 fb 68 be
       -0.0035192678 -0.37622884 0.12982608 -0.22752027
0002c0 55 0c 61 3d 21 6c a5 3b 00 eb 77 3e e2 a7 73 be
       0.0549434 0.0050482904 0.24210739 -0.23794511
0002d0 43 88 9c be 8f 26 c4 be 01 20 87 3d 2b c2 86 be
       -0.3057271 -0.38310668 0.06597901 -0.26320013
0002e0 09 75 d4 be 07 e8 a8 3e f5 45 88 3e 43 ac 6c 3e
       -0.4149554 0.32989523 0.26615873 0.23112588
0002f0 c6 f3 78 be ea 6c b6 be 6a 8b 36 be 1f be 84 be
       -0.24311742 -0.3562997 -0.1782662 -0.259263
000300 f8 02 64 3e de 9f 37 b9 7e 2f 5e 3d a4 dc 43 bd
       0.22266757 -0.00017511795 0.05424451 -0.04781784
000310 f4 9f 85 3d aa 98 89 3e e1 f1 24 3e bd 98 40 3e
       0.06524649 0.26874286 0.16107894 0.18808265
000320 f1 9e 9e 3d 12 78 18 3d da 4d aa bd a1 30 4a 3e
       0.077451594 0.037223883 -0.0831563 0.19745113
000330 e5 7a e1 bb 02 ed 11 3e 79 73 64 3e d8 f6 26 3e
       -0.0068811052 0.14250568 0.22309674 0.16305101
000340 b7 31 be bc e7 dd 2a be 0c e3 55 bd 86 12 b4 3e
       -0.023217065 -0.16686212 -0.052218482 0.35170382
000350 b2 e9 bf 3d cb 89 6b 3e d1 9c dc 3d 91 3c 53 3d
       0.09370746 0.23001783 0.10772098 0.051571433
000360 25 4e ee 3d 40 b8 6c bd 6e cf 00 3e 2a 7d 80 3d
       0.11635999 -0.057792902 0.12579128 0.06273873
000370 e7 fb 26 3e 40 bf 9d 3d 02 e8 c0 bd 7c fe 85 be
       0.1630703 0.07702494 -0.09419252 -0.2617072
000380 f1 9c 16 3e e0 61 0a be ee a2 37 bd 6e f6 4c 3e
       0.14708306 -0.13513899 -0.044833116 0.2001588
000390 3b f2 00 3d e3 34 1b 3e 22 a3 ca 3d 57 63 80 3e
       0.03148101 0.15156893 0.09894396 0.2507579
0003a0 dc a3 e3 3d aa 69 42 3d 58 ae 7e 3e d5 e3 98 3d
       0.11115238 0.04746405 0.24871194 0.074653305
0003b0 c7 0b a8 3e 8c e0 17 3e 39 a0 3b 3c 79 c9 6a bd
       0.32821485 0.14831752 0.011451774 -0.057321046
0003c0 4f f1 93 3e 93 fc c1 3c 43 63 9b 3e aa 3f dd bc
       0.2889504 0.023680007 0.30349168 -0.027007896
0003d0 24 09 38 be f1 f2 41 bd 37 62 9b 3e e7 7f 49 3d
       -0.17972237 -0.047350828 0.3034837 0.049194243
0003e0 fd f7 7a 3d 2a 98 28 3e 6b 4c 9e 3d 3a fa 8a 3d
       0.061271656 0.16464296 0.07729419 0.06786008
0003f0 48 30 44 be 79 c9 ff bd 14 fb ae be 9b d1 29 3d
       -0.19159043 -0.124896 -0.34175932 0.04145966

gcn.convs.2.bias f4 [64]
000000 7b 9c 93 3d 67 9a 23 3e ba 0e 45 bb 7a 50 67 3c
       0.07207581 0.15976869 -0.0030068592 0.014118308
000010 f4 e8 1e 3e 4a 6f 13 bd 8f f3 bf 3d 2e 94 83 be
       0.15518552 -0.035994805 0.09372627 -0.2569899
000020 cc 0c 52 3e d2 a8 60 be fa 81 16 be 15 e7 38 be
       0.20512694 -0.219394 -0.1469802 -0.18056901
000030 02 65 0a 3e 9a 3c f8 3c ac 4f f6 3d 8d bf 65 be
       0.13515094 0.030302335 0.12026915 -0.22436352
000040 6a 72 52 3d 83 00 79 3d 0c 48 60 3d 04 d4 b2 bd
       0.051378645 0.060791504 0.05475621 -0.08731845
000050 65 e7 4d be b5 a3 3a 3e b8 60 59 be e8 46 17 be
       -0.20107801 0.18226512 -0.21228302 -0.14773142
000060 2c d2 5a be 48 66 e7 bd 00 45 ae bd 49 12 eb 3d
       -0.21369237 -0.112988055 -0.085092545 0.11478097
000070 07 72 dd 3d 3e 2a 11 3d 85 32 62 be 06 a8 21 be
       0.108127646 0.035440676 -0.22089584 -0.15786752
000080 2e e1 14 be 88 70 40 3d 09 5d 25 be 02 a6 7f 3d
       -0.14539024 0.04698232 -0.16148771 0.062414177
000090 f9 68 56 3e 4b 24 9b 3d dd 9f 02 be fc cc 99 bd
       0.20938481 0.07575282 -0.12756296 -0.07509801
0000a0 25 3b d5 bd 1f 41 20 be cc 82 0b 3e 96 7b d2 bd
       -0.104116715 -0.15649842 0.13624114 -0.102774784
0000b0 c6 f8 df bd c8 c2 e4 bd 3c c0 62 bd f9 2a 17 3e
       -0.10936122 -0.11169964 -0.05535911 0.14762487
0000c0 83 4b 18 3e 01 66 5b 3e 05 21 c8 3d 35 0d 2a be
       0.14872555 0.2142563 0.09771923 -0.166066
0000d0 07 eb a9 3d 29 00 59 3e 8f 82 57 be 1b 7c 55 3e
       0.08296781 0.21191467 -0.21045898 0.20848124
0000e0 45 7c 0d be e4 16 d2 bd 9e d1 54 3d f4 b3 07 3e
       -0.13816936 -0.10258272 0.05195772 0.1325224
0000f0 ac a8 34 be f9 8c cb 3d 89 af 1c 3e 5a d8 d5 3d
       -0.17642468 0.09938998 0.15301336 0.104416564

gcn.convs.2.lin.weight f4 [64, 64]
000000 71 fe 4c 3d 88 18 8c 3c 8d 32 11 be 7d 03 25 3d
       0.05004734 0.017101541 -0.1417944 0.04028653
000010 19 73 7d 3d 34 86 04 bd 1d c6 ce bc e5 de d5 bc
       0.061877344 -0.03235455 -0.025240952 -0.026107261
000020 51 e5 d7 3c f9 36 9b bd a5 83 a2 bd 81 37 a2 bd
       0.026354464 -0.075788446 -0.079352655 -0.07920743
000030 97 d0 6f bd 43 75 ed bc 15 88 00 3d 59 fc ce bd
       -0.058548536 -0.028986579 0.031379778 -0.10106725
000040 31 68 c8 bd 13 6b 6d 3c c5 ae 3f bc e5 16 c8 bd
       -0.09785498 0.0144908605 -0.011699383 -0.09769992
000050 58 79 89 3c 4e 2d 03 bd 1e b1 94 be 69 40 53 be
       0.016781494 -0.032025628 -0.2904138 -0.2063004
000060 78 52 17 3e 69 bc a3 3c 1d 6a 86 bd 16 19 36 be
       0.14777553 0.019987302 -0.06563208 -0.17783007
000070 82 70 99 bd ec ff 78 be 2c 4c 59 3d 70 b1 8c be
       -0.07492162 -0.24316376 0.05305116 -0.27479124
000080 3e de e9 bd 02 cd 89 bd bd b3 5c be 0b e6 fc 3d
       -0.114193425 -0.06728555 -0.2155294 0.12348565
000090 21 66 3b bd 3c de 74 bd b0 8c 5a bc 76 64 10 be
       -0.045751695 -0.05978225 -0.013339207 -0.14100823
0000a0 fc 71 18 bd 56 c2 cd bd e8 26 ab 3d fa b1 cb 3d
       -0.03721808 -0.10046832 0.0835703 0.09946056
0000b0 61 da 61 3d d7 8d aa 3b a6 1d b8 3d 6c 29 23 3e
       0.055139903 0.005204897 0.0899003 0.1593377
0000c0 7d 31 a9 bc 8f bb 54 3b fd 8f 9b bd cb 4b b6 bd
       -0.02065348 0.0032460426 -0.07595823 -0.08901175
0000d0 39 d3 7c be c3 3e c5 3c 11 75 25 3d 23 fa c8 bd
       -0.2468995 0.024077779 0.040394846 -0.09813335
0000e0 94 ea 0b 3e 78 47 ac bd b9 bb 18 3e 6d 8a c2 bd
       0.13663703 -0.08412069 0.1491536 -0.09499059
0000f0 cd bd 1c bd 2d 63 b4 bc 17 01 de bd 73 13 21 be
       -0.038266946 -0.022019947 -0.108400516 -0.15730076
000100 7b fc 3d bb b7 dc 35 3d 39 e0 b5 bd a1 95 03 3c
       -0.0028989601 0.044399943 -0.08880658 0.00803128
000110 ff 64 cf bd 42 8b c9 bd 53 af 84 39 81 5a 31 3d
       -0.10126685 -0.098410144 0.0002530763 0.043299202
000120 42 f4 d8 bd fa 98 6c be 84 8f e0 bd bd 1e 2b be
       -0.105934635 -0.23105231 -0.109648734 -0.16710944
000130 7f 4d 8c bd 3b dc 07 be 98 53 93 3d 60 e3 54 be
       -0.06850719 -0.13267605 0.071936786 -0.20789862
000140 6f df 80 3d d1 51 19 3e 02 6b e2 bd 5d c5 a9 bb
       0.062926166 0.14972617 -0.11055566 -0.0051809982
000150 10 1a 31 be c0 c1 bb 3d ba 6c b3 be 6a 1d a1 3d
       -0.17295098 0.09167814 -0.3504389 0.078669384
000160 4b 61 dc bc 66 3b 1c bd 8d e5 af bb 11 a2 36 be
       -0.026901862 -0.038142584 -0.0053679408 -0.17835261
000170 36 8f 7d be 86 52 70 be 3f ac f3 3c 77 ff 4d be
       -0.24761662 -0.2346898 0.02974522 -0.20116983
000180 94 02 bc 3d 2c 77 2d be 82 63 1f be 7a 98 17 be
       0.09180179 -0.16939992 -0.15565303 -0.14804259
000190 ed 05 b0 3d 51 b4 b4 bd 58 9c bc 3c 1c b1 ef 3d
       0.0859488 -0.08823455 0.02302377 0.11703703
0001a0 0c 69 03 3e 88 06 80 3c aa cf f4 bd bd a8 0a be
       0.12833041 0.015628114 -0.11953671 -0.13540931
0001b0 a2 b1 a3 3d 92 22 57 3d 11 a6 08 be 2c 86 a6 3d
       0.07992865 0.052523203 -0.133446 0.0813106
0001c0 de 99 b2 be ac fc 23 bd 15 e2 5d be be e4 07 be
       -0.34883016 -0.04003589 -0.21668275 -0.13270852
0001d0 f0 46 27 be e1 34 11 be b0 2b ac bc 03 e2 73 be
       -0.16335654 -0.14180328 -0.021016926 -0.23816685
0001e0 09 58 04 be c8 b1 13 3e 9a 4f c5 3d a9 e2 83 be
       -0.12924208 0.14423287 0.096343234 -0.25758865
0001f0 d0 66 bc bc 7f b1 dc bc e9 52 5b be 85 00 a5 bd
       -0.022998244 -0.026940105 -0.21418346 -0.0805674
000200 1b 92 e6 3c 63 07 9b 3c 14 2e 88 3d 87 1b cc bc
       0.02814584 0.01892442 0.06649414 -0.02491547
000210 f6 e0 e1 bd a4 da f7 3d 94 bb 94 bd 7f 23 67 be
       -0.11029236 0.12102249 -0.0726234 -0.22572134
000220 2a 37 c3 3c 6f 9a ca 3c 7e ed cc 3d c6 a8 1d be
       0.023830015 0.024731843 0.100062355 -0.15396413
000230 99 9e cd 3d 0e 7f 00 3e 6c 35 13 be 54 89 88 ba
       0.10040016 0.12548468 -0.14375848 -0.0010416904
000240 8c 01 0c 3e f0 d7 71 3d 20 c7 0f 3e b1 30 02 be
       0.13672465 0.059043825 0.14040804 -0.12713887
000250 a1 eb 01 3e ad 0f 07 bd 14 12 62 3e 64 fa d3 3c
       0.12687542 -0.032973934 0.22077209 0.025876231
000260 4c e1 d6 3d e9 79 f1 bd a6 28 a6 3c 66 45 b8 3d
       0.10492191 -0.11790831 0.020283055 0.08997612
000270 47 cd 50 3e 78 27 90 3e e2 3b a4 3d fd 75 f9 3d
       0.20390807 0.28155112 0.08019234 0.121807076
000280 82 9b a8 3a b7 4c 23 3e f6 d6 49 3e 66 61 83 3d
       0.0012863728 0.15947233 0.19710907 0.06415062
000290 7c a6 9e bd 5b af 3b ba 7c a2 16 be 6c 9a 85 3e
       -0.07746598 -0.0007159614 -0.1471042 0.26094377
0002a0 2c 0e 1f be ee d2 df bd 3a fb c2 bd 00 9c 35 3d
       -0.1553275 -0.109289035 -0.09520574 0.044338226
0002b0 90 ab 4b 3d 41 b7 f8 3c cf 60 12 be d6 9b c8 3d
       0.04972416 0.03036082 -0.14294742 0.09795348
0002c0 fe ba 9a 3e b2 ed 27 be b2 96 1b 3e 8f 98 d2 bd
       0.3022079 -0.16399267 0.15194204 -0.102830045
0002d0 3e 4f 40 3e 93 fc 05 bd a3 5d 60 3e 7f 10 4d bb
       0.18780228 -0.032711577 0.2191072 -0.003129035
0002e0 54 a6 38 3e 40 ee 30 bd c3 de 43 3e d3 0e 30 3e
       0.18032199 -0.043195963 0.19127946 0.17193155
0002f0 98 bc 0a 3e c8 89 2d 3d e6 74 c3 3d f3 52 ef 3d
       0.13548505 0.042367727 0.09543781 0.11685743
000300 73 46 20 bd 47 54 46 bd e0 44 8e 3c a6 6d 70 be
       -0.039129686 -0.048420217 0.017366827 -0.23479328
000310 88 be 43 3e ce 93 db be 40 8a 88 bd f0 dc 0a bd
       0.1911565 -0.42886204 -0.06666994 -0.03390211
000320 ce 17 ab bd 58 63 4e 3c 61 df cf bd 58 60 03 3d
       -0.0835415 0.012596928 -0.10150028 0.032074302
000330 67 16 56 be 59 e8 7c be 3e d8 5a 3e b9 99 d6 3c
       -0.20906983 -0.24698009 0.21371552 0.026196348
000340 95 3e 67 be 4f cd f1 3c e1 0b ad be 96 53 08 3e
       -0.22582467 0.029516844 -0.33798125 0.13313136
000350 e1 8a 88 be c6 38 a9 3d eb 38 4b be 88 50 38 3e
       -0.26668456 0.08262782 -0.19845931 0.1799947
000360 eb 1a a7 be 3f 77 d5 3d f6 de 6c 3e 25 d9 2f 3e
       -0.32637724 0.10423135 0.23131928 0.17172678
000370 94 fa 2b be c9 ed c2 3d 20 d1 8a be fc 26 ce 3d
       -0.16794807 0.0951801 -0.27112675 0.100660294
000380 47 c1 96 be f6 0d 9f bd 82 08 48 be 82 d7 f6 bd
       -0.29444334 -0.07766335 -0.19534495 -0.120528236
000390 73 a1 2d be f2 f8 5d 3e a4 95 73 3e 9d 2f 92 be
       -0.16956119 0.21676996 0.23787552 -0.2855195
0003a0 25 f0 b5 3d 0f a1 b9 3e 63 78 80 be f2 03 69 be
       0.088836946 0.3625569 -0.25091848 -0.22755411
0003b0 39 f0 5c be b6 de 2f bd e5 c1 51 be a8 df 8d be
       -0.21576013 -0.042937003 -0.20484121 -0.277097
0003c0 86 89 87 be ac e1 83 3e be a5 79 be d9 99 25 3e
       -0.2647211 0.2575811 -0.24379632 0.1617197
0003d0 a5 84 11 bb a1 46 d2 be 43 25 b5 be 95 bc a8 be
       -0.0022204306 -0.4106951 -0.3537999 -0.32956377
0003e0 23 18 84 be 3a 2a 5a bd ed 18 5b be e4 3b 91 bc
       -0.25799665 -0.053262927 -0.21396227 -0.017728753
0003f0 7c 40 e1 be ce 88 97 bd 59 4b 96 3d 9d 54 a6 be
       -0.4399451 -0.0739914 0.0733859 -0.3248643

edge_feature_mlp.0.weight f4 [64, 5]
000000 d1 70 49 8a c5 b5 44 8a 5d d9 5b 8a f9 0c 54 8a
       -9.6990164e-33 -9.471244e-33 -1.0585348e-32 -1.02098686e-32
000010 e6 10 49 0a 94 d1 48 0a 77 e4 5a 8a 32 30 5a 0a
       9.680976e-33 9.669067e-33 -1.0539288e-32 1.0505383e-32
000020 13 a7 5c 0a 3d 60 6d 0a ff dd 52 0a 1a fa 4f 0a
       1.0624038e-32 1.1429235e-32 1.0152885e-32 1.0013726e-32
000030 c3 a2 56 8a 84 ce 5e 0a a1 5f 59 0a 27 f1 50 8a
       -1.0334337e-32 1.07277525e-32 1.0466156e-32 -1.00601914e-32
000040 e6 d8 45 0a 05 e3 55 8a c4 ed 45 0a 62 ab 64 0a
       9.525999e-33 -1.02982746e-32 9.529924e-33 1.1010034e-32
000050 ee ce 50 8a fa 91 55 0a 13 0a 5a 8a be ce 5c 8a
       -1.0053755e-32 1.0283032e-32 -1.0498213e-32 -1.06314986e-32
000060 40 c5 51 0a 8b 12 5d 0a 22 d4 4c 8a 6a bb 65 0a
       1.01000826e-32 1.06442505e-32 -9.8621405e-33 1.10611976e-32
000070 92 ea 59 8a 53 4e 58 0a b6 c2 5a 8a 88 73 47 8a
       -1.0492288e-32 1.0414753e-32 -1.0532939e-32 -9.6032305e-33
000080 85 b6 5c 8a b0 56 4f 8a 1b 48 5e 8a 5d 42 4a 8a
       -1.0626943e-32 -9.9829916e-33 -1.0702473e-32 -9.738428e-33
000090 4b 52 4b 8a d2 cb 59 8a 5f 9b 56 0a 4f fe 57 0a
       -9.789572e-33 -1.0486504e-32 1.0332947e-32 1.03997036e-32
0000a0 06 b9 4b 8a 13 cd 6c 0a c9 81 5b 0a b6 b4 4d 8a
       -9.8088935e-33 1.1401557e-32 1.0568876e-32 -9.904379e-33
0000b0 6a 1c 4b 8a c7 a7 43 8a eb 03 50 8a f1 15 4a 0a
       -9.7794386e-33 -9.420464e-33 -1.00155726e-32 9.730073e-33
0000c0 39 37 54 8a d3 7d 5b 8a 71 28 4b 0a 5e 03 5a 0a
       -1.0217815e-32 -1.0568131e-32 9.781701e-33 1.04969515e-32
0000d0 fa c6 44 8a 85 36 5c 0a 1c 24 56 0a 1c 91 5c 8a
       -9.47448e-33 1.0602869e-32 1.03105166e-32 -1.0619907e-32
0000e0 4b 0a 4e 8a 4d 22 5a 8a 85 47 66 0a 76 46 57 8a
       -9.920475e-33 -1.05027695e-32 1.10875485e-32 -1.0365126e-32
0000f0 06 0c 45 8a e0 a1 55 0a e9 79 4b 8a de 09 51 8a
       -9.487466e-33 1.0286022e-32 -9.797023e-33 -1.006484e-32
000100 78 76 4b 8a 3e 0d 58 8a 3e 0f 5a 8a f2 b2 46 8a
       -9.796376e-33 -1.0402512e-32 -1.0499185e-32 -9.567009e-33
000110 e7 8a 60 8a 79 2f 5c 8a 40 f7 50 8a 7d 9a 44 8a
       -1.0811332e-32 -1.0601543e-32 -1.0061338e-32 -9.466113e-33
000120 60 80 68 8a 17 96 5a 0a 9a 82 52 8a 99 04 57 8a
       -1.1194538e-32 1.0524547e-32 -1.01356956e-32 -1.0352738e-32
000130 8f 7a 50 0a 7a 22 50 0a 70 25 6f 8a e2 4c 4e 0a
       1.00378864e-32 1.002132e-32 -1.15144726e-32 9.932999e-33
000140 15 16 4a 0a 57 05 4c 0a 8b 36 60 8a 32 c8 6c 8a
       9.7300994e-33 9.823247e-33 -1.0795466e-32 -1.1400639e-32
000150 f8 c9 70 8a e6 98 57 0a a0 c0 4f 0a 19 9f 50 8a
       -1.1593566e-32 1.03806305e-32 1.0002916e-32 -1.0044759e-32
000160 bc 5d 57 0a 08 27 5f 0a dd ba 57 8a fb 2a 4b 8a
       1.0369503e-32 1.07444004e-32 -1.03870185e-32 -9.782178e-33
000170 be 07 51 0a 82 53 50 8a 32 06 51 8a d7 0b 53 0a
       1.006444e-32 -1.0030542e-32 -1.0064149e-32 1.0161507e-32
000180 48 86 49 8a 18 53 58 8a 3d 66 5e 0a 0b 2f 5a 8a
       -9.7030535e-33 -1.041565e-32 1.070814e-32 -1.0505166e-32
000190 8b 60 56 8a 67 75 48 0a ac 1e 51 8a 68 8b 56 0a
       -1.0321883e-32 9.651731e-33 -1.0068753e-32 1.03299446e-32
0001a0 94 51 47 8a 39 d0 48 0a 20 e8 58 8a ae d9 59 8a
       -9.5968446e-33 9.668812e-33 -1.04436796e-32 -1.0489111e-32
0001b0 5a c7 47 0a 4e c2 4d 0a 40 18 61 0a 72 43 4c 0a
       9.618995e-33 9.9069356e-33 1.0837917e-32 9.834928e-33
0001c0 60 63 6a 0a 1a f8 57 8a 85 ab 54 0a a1 6f 54 0a
       1.12853805e-32 -1.0398536e-32 1.0239688e-32 1.0228424e-32
0001d0 d9 1f 5e 0a 74 dd 5d 0a 5d ef 53 0a d6 6a 5d 0a
       1.0694901e-32 1.0682414e-32 1.02043e-32 1.06608565e-32
0001e0 ea 30 4d 8a 99 fe 65 0a e6 59 68 0a 5c 42 4e 0a
       -9.879591e-33 1.10738334e-32 1.1187302e-32 9.93102e-33
0001f0 8a 8f 5a 8a 94 df 4f 8a e1 a3 52 8a aa 5e 4d 8a
       -1.0523315e-32 -1.0008738e-32 -1.01419544e-32 -9.888195e-33
000200 1f 47 48 0a f5 f0 5b 8a d3 3f 57 0a 8e e9 71 0a
       9.643026e-33 -1.05897854e-32 1.03638775e-32 1.1647655e-32
000210 10 ae 46 8a 17 34 55 0a 78 c5 4f 8a aa bd 4d 8a
       -9.566091e-33 1.0265374e-32 -1.0003827e-32 -9.906063e-33
000220 56 d0 5a 8a 56 3a 4e 8a 0f bb 69 0a c9 91 57 0a
       -1.0535502e-32 -9.929511e-33 1.1253724e-32 1.03792926e-32
000230 84 42 5b 0a d6 d7 55 0a 39 b8 55 8a 36 97 51 0a
       1.0556977e-32 1.0296171e-32 -1.02902254e-32 1.00914236e-32
000240 f2 c8 52 0a 75 60 5f 0a a0 e0 52 8a 23 bc 56 8a
       1.0148926e-32 1.0755201e-32 -1.01533795e-32 -1.033911e-32
000250 df 45 47 8a 7c bd 4d 8a 21 fc 5a 8a 7f 9e 51 0a
       -9.594643e-33 -9.906029e-33 -1.05437384e-32 1.0092794e-32
000260 68 ec 59 8a 7a cd 58 0a 61 e8 51 8a 15 4b 54 8a
       -1.0492633e-32 1.04386675e-32 -1.01066896e-32 -1.022155e-32
000270 a9 ce 57 8a 9a ce 51 8a 17 b6 57 8a 1e 37 52 8a
       -1.0390742e-32 -1.01018414e-32 -1.0386121e-32 -1.01214986e-32
000280 94 01 4d 0a ba 9e 5c 8a e6 18 4f 8a c8 53 5c 0a
       9.870688e-33 -1.0622468e-32 -9.97137e-33 1.0608372e-32
000290 16 c7 5c 8a 8b 09 57 8a 8d 20 5b 0a c4 8b 58 0a
       -1.06300586e-32 -1.0353668e-32 1.05505886e-32 1.0426309e-32
0002a0 da 41 54 0a d3 27 73 8a e3 9a 5b 8a 4a 47 51 0a
       1.0219814e-32 -1.17075145e-32 -1.05735974e-32 1.0076392e-32
0002b0 3e c9 59 8a 46 8a 4b 0a 70 43 5d 0a a5 57 5d 0a
       -1.04860194e-32 9.800101e-33 1.06534465e-32 1.0657247e-32
0002c0 ce 3c 49 8a 15 0f 47 0a 40 0b 51 0a ac 81 60 0a
       -9.689234e-33 9.584338e-33 1.00651e-32 1.0809596e-32
0002d0 56 18 5b 0a 92 b9 52 8a 68 e1 49 8a a0 bc 4f 0a
       1.05490435e-32 -1.0146034e-32 -9.720192e-33 1.0002164e-32
0002e0 74 b1 52 8a 6f 63 53 8a b7 a3 53 8a f5 79 5f 0a
       -1.01445074e-32 -1.0177982e-32 -1.0190072e-32 1.0759997e-32
0002f0 a7 19 57 8a 88 f9 4a 0a 92 15 5f 0a 66 06 54 8a
       -1.0356698e-32 9.772878e-33 1.0741116e-32 -1.0208632e-32
000300 1e a5 69 0a 37 a7 4d 0a a0 1e 51 0a 51 48 56 8a
       1.1249597e-32 9.9018406e-33 1.0068744e-32 -1.03173264e-32
000310 76 0f 44 0a 10 cb 5b 8a 70 e6 44 8a 21 a0 59 0a
       9.4399646e-33 -1.0582658e-32 -9.480397e-33 1.0478287e-32
000320 6c ab 67 8a 68 cc 6f 0a 6d e6 5b 8a 1c a6 58 8a
       -1.1154486e-32 1.1545876e-32 -1.0587805e-32 -1.04312634e-32
000330 27 41 48 8a 7e d8 5a 0a f7 29 5a 0a 77 b8 5c 8a
       -9.6419035e-33 1.0537036e-32 1.0504211e-32 -1.0627309e-32
000340 bf a5 4e 0a 3c c9 5b 0a 9b 5e 59 0a ee 70 63 0a
       9.9497126e-33 1.05823144e-32 1.0465963e-32 1.0950892e-32
000350 43 72 4d 8a 12 cc 4b 0a 23 84 5d 8a 4f a9 4b 0a
       -9.891881e-33 9.812476e-33 -1.0665615e-32 9.805938e-33
000360 91 be 50 0a ff c1 4e 0a 64 e8 5b 0a 75 e5 51 8a
       1.0050677e-32 9.955026e-33 1.0588174e-32 -1.010614e-32
000370 3c 98 54 8a e8 12 52 0a dd da 4e 0a 48 6c 68 0a
       -1.0236061e-32 1.0114688e-32 9.959703e-33 1.1190759e-32
000380 82 f1 5f 0a 61 81 49 8a ad cb 55 0a 34 71 51 8a
       1.0782482e-32 -9.7021314e-33 1.0293884e-32 -1.0084275e-32
000390 1f fe 4e 0a fb 4e 5b 0a ab ed 5b 8a 54 27 4c 0a
       9.966334e-33 1.0559321e-32 -1.0589167e-32 9.8296395e-33
0003a0 b8 a9 4a 8a 67 43 4d 8a 71 df 5a 8a 73 e4 4b 8a
       -9.757867e-33 -9.883068e-33 -1.0538343e-32 -9.817061e-33
0003b0 08 ff 5a 8a 67 88 53 0a c0 5b 45 8a 86 24 56 8a
       -1.0544284e-32 1.0184935e-32 -9.502461e-33 -1.03105945e-32
0003c0 72 34 4a 8a f7 94 58 0a 7f e0 43 0a 04 e8 49 0a
       -9.73581e-33 1.0428039e-32 9.4311315e-33 9.721435e-33
0003d0 48 f5 5f 8a bb 8e 53 0a dd bf 57 0a 6d b5 5a 8a
       -1.0783192e-32 1.0186125e-32 1.0387959e-32 -1.05304406e-32
0003e0 aa 66 55 0a f2 7e 49 0a fc 5f 4e 8a 57 4a 57 0a
       1.0274886e-32 9.701674e-33 -9.936592e-33 1.0365855e-32
0003f0 c9 fd 51 8a 00 88 55 0a 6c a1 57 0a e4 73 5a 0a
       -1.0110716e-32 1.0281156e-32 1.03822335e-32 1.0518115e-32

edge_feature_mlp.0.bias f4 [64]
000000 b0 46 26 bb 1d 90 b8 bc 31 04 a9 3d 6f 09 2c 3d
       -0.0025371723 -0.022529656 0.082527526 0.042001184
000010 40 a6 69 3e d8 e9 ab 3d 14 bd 2c 95 05 db 87 3d
       0.22817326 0.083942115 -3.488428e-26 0.066335715
000020 1d e1 03 bb a3 05 5c 8a 1f 78 aa b3 ca 3e fd 3d
       -0.0020123192 -1.0593675e-32 -7.938092e-08 0.12365492
000030 5d 37 f9 3c 31 10 db b9 d4 31 36 3e 06 87 80 3e
       0.030421907 -0.00041783 0.17792445 0.25103015
000040 b6 cb c7 90 bc 16 5b 8a 62 a7 87 3d 95 7f fe b9
       -7.8805526e-29 -1.0548742e-32 0.066237226 -0.0004854171
000050 b0 53 d4 3c 9d f8 b0 a4 2b 04 be 3d f8 13 64 8a
       0.025918812 -7.6749e-17 0.09278139 -1.09815564e-32
000060 53 44 7f bb 48 36 e9 ba f3 ca d0 bc e3 e4 97 bc
       -0.0038950637 -0.0017792666 -0.025487399 -0.018541759
000070 96 2b 11 a5 5f 9f 63 3e 2b 23 0e 3e 77 06 3f 3e
       -1.2591513e-16 0.22228764 0.13880603 0.1865481
000080 6e 24 82 a5 77 af ff bb 6a f0 ec 3d 75 6b 86 b8
       -2.257609e-16 -0.0078028995 0.11569293 -6.409633e-05
000090 52 26 36 3e 54 ed 9e 90 36 66 d5 3d 8d dd 47 3e
       0.17788056 -6.2685673e-29 0.10419886 0.19518109
0000a0 e8 65 2c 3e 3e 5c 4e 3d a3 f2 94 3e b4 7d 88 bb
       0.16835749 0.050380938 0.29091367 -0.0041653756
0000b0 1c 61 b9 b5 f4 90 ac bc 6a 8a 26 bb 16 77 0a 9d
       -1.3811837e-06 -0.021065213 -0.002541209 -1.8325714e-21
0000c0 91 82 46 8a ec 8f 91 3d 26 f3 26 ba d0 54 28 3e
       -9.55791e-33 0.07107529 -0.00063686294 0.16438603
0000d0 78 85 26 bb 9b 23 83 3d f3 03 f1 ac c6 9b 9a ba
       -0.0025409143 0.064032756 -6.8500704e-12 -0.0011795692
0000e0 69 1a 09 b2 34 94 53 bc 76 97 e1 3d e7 74 f8 bb
       -7.9804545e-09 -0.012913752 0.11015217 -0.007582295
0000f0 0d b7 11 ac b3 bb 2e af f1 59 38 3e b1 98 a2 b8
       -2.0707353e-12 -1.5891892e-10 0.1800306 -7.753203e-05
